Assets/Models/CarDriver.onnx (onnx, 126990 bytes, 9 tensors)

discrete_action_output_shape f4 [1, 2]
00000000: 0000 4040 0000 4040
3.0 3.0

network_body._body_endoder.seq_layers.0.weight f4 [128, 106]
00000000: 68f5 613d 96c7 7f3c 31cb 983d c6b6 b03d
00000010: 3710 55bc 3123 723e 21df 41bd a402 b23d
00000020: 5de6 aebc 89ae 58be 838e ed3d edb1 243d
00000030: d615 f9bb fea8 a63d 1724 50bd 3518 56bd
00000040: a10c 963d a05d bb3d ac44 5b3c 1364 133e
00000050: 4d0d 91bd 1d35 b6bd 429a 413d 2bce dbbd
00000060: 68b5 cc3d 7db7 f23d 6d28 ffbd 09a6 2abd
00000070: d3f2 773d be82 0139 590b fe3d 3927 1dbd
00000080: ee2f b6bc 394c 9a3d 6ee3 9d3d e9d9 77bd
00000090: 4201 1c3e be41 d4bd ffb0 63bd d0fc 143d
000000a0: 731d 84bd 6063 3ebd 4be5 683c 8c04 993d
000000b0: fd4a d2bd 8fce 8bbd 382e 7abc b76f edbc
000000c0: 11b1 da3d 4abd 0a3d d503 233d 032e 863e
000000d0: 8a5b e83d e151 58bc 22a7 26be 2936 d43d
000000e0: 04b6 dbbd 4ce1 503d 0864 27be 6312 273d
000000f0: fed2 f63d 51ea 613e a07d dc3c cbe8 283e
00000100: 39d8 fe3d 5567 723c d295 e63d 51c4 bebd
00000110: ef01 9abd dac4 05bd 99a6 e6bc 3f8b 733d
00000120: a987 943d 8dc2 253e ad66 463d e546 9bbd
00000130: 2111 4d3d 97a6 2e3e d98e 54bd 3ab3 333e
00000140: a33e 4ebb 6990 4e3d a6dd 9dbd 9c72 e7bc
00000150: eb7c 85bd 858e 76bd cc7a babc 8905 fe3d
00000160: b4a0 06be 9fc8 ddbd 72cc d6bd 1281 f3bd
00000170: c5fc 193e ed77 c2bc 8666 e13d 9fb3 de3b
00000180: a5a4 cdbd cdc9 223d 49ca ff3b 6cb9 3b3c
00000190: 8156 1ebd e5d0 983d ec9c e83c 6a3b 833d
000001a0: 6ba3 5abc c49c c9bd 1dfd 1b3d 83db 3c3e
000001b0: 1a60 d8bc dfb6 c6bc c380 f2bc f817 9abd
000001c0: e198 9bbd 0f39 9f3d 05ab 373e 1942 943d
000001d0: 060f 4abe c809 593e 188f 02bd 7d35 b33a
000001e0: 806f f8bd 7084 9d3e 1c1c d1bd d03f ac3d
000001f0: 015c 563d b1ef ab3c a9e7 953d d1ca 2fbe
00000200: 2daa 2a3e 3cac 2ebd 8025 8e3d 0490 3bbc
00000210: 4051 7c3b 5120 f43d 663a e23c 5503 0abe
00000220: 1502 edbc de24 2f3e f4d1 91bd d4a9 993b
00000230: 6a78 8a3c 0fca 9b3d 1fd7 8abc 6253 793c
00000240: e5e9 1ebc 4a50 8c3c ffe3 be3c cf58 a83b
00000250: e39b 5cbd f8a8 9fbd 28d8 fabd 8e0c 18bd
00000260: 3f88 18bd aef0 81bd 63ca 13be 83ec 15bd
00000270: f4ba b8bd f12b a8bc 793d 363c 242f 223d
00000280: 544f 46be 103e 83bd fd8d 62bd 04c5 66bc
00000290: 1710 55be 38d3 13bd 4674 6d3d d8cf a33e
000002a0: 2c02 eb3d 35e7 f83c 7f25 dc3d 1567 2dbe
000002b0: 2992 a33d 49b6 c13d 89cd b6bd 6726 1f3d
000002c0: b4a3 ea3d 517a 33be ef90 f73d a341 2bbd
000002d0: c8ef 6fbd 981f ee3c cbcd 793d f457 51bd
000002e0: 4f30 643e ab6f 84bd 6fec 81bd bc15 d1bd
000002f0: 6c8d ad3d 9c25 283d 7355 7f3d 07f6 403d
00000300: c428 f93c 8053 e7bd 1caa 163e bf25 293e
00000310: 71c8 3dbd 7d44 4fbc 024b 133d ed48 fb3c
00000320: b681 f03b cbf1 213d cbac 3c3c 1408 ce3d
00000330: 6400 27be a4b9 bc3c 88f7 97bc 28e2 d2bc
00000340: 4bf5 933d 6594 3a3e 09d5 d73d c375 9d3d
00000350: 01b5 633e 8567 bd3d 330d 3dbe 2029 cfbc
00000360: 8bb9 4bbb 4ac1 21be 993a 3c3d f358 cf3d
00000370: 3c8d 44bc 01f5 133e fc00 c1bc d6b8 7cbc
00000380: 9159 f03d 9372 0e3e 736d 74bd 1473 b2bd
00000390: b608 2bbe 10df 2d3e c404 0d3d b14a 373d
000003a0: 76a0 3ebe 1eb5 f33c 346e 5e3e a902 c23d
000003b0: df18 763d 568c c53d ffc7 963d 5a74 dbbc
000003c0: a77b 69be dab2 6dbc 5b3b 1c3d 37a7 403e
000003d0: 3134 373d 4c6c 593d 9005 453c d049 a4bd
000003e0: 4d54 6b3e 04aa 003d 37f7 9a3d df64 1d3e
000003f0: 133e bcbe 7ac6 693e def3 7b3c 3283 35bc
0.05516568 0.01561155 0.07460631 0.08628611 -0.013004354 0.23646237 -0.047331933 0.0869191
-0.02135008 -0.2116033 0.115994476 0.040208746 -0.00760148 0.081377015 -0.050815668 -0.05226918
0.073266275 0.09148717 0.013383072 0.14393644 -0.07082615 -0.08896849 0.047266252 -0.10732683
0.09995538 0.11851404 -0.124588825 -0.04166225 0.06053431 0.00012351104 0.12404508 -0.038367484
-0.022239652 0.075340696 0.077093944 -0.06051055 0.15234855 -0.10364102 -0.05558872 0.036373913
-0.064509295 -0.04648149 0.014214824 0.074715704 -0.10268209 -0.06826507 -0.0152698085 -0.028983934
0.10678304 0.033871926 0.039798576 0.2620698 0.11345585 -0.013203115 -0.16274694 0.10361893
-0.10728076 0.05099611 -0.16346753 0.04078902 0.12051962 0.22062041 0.026915371 0.16495053
0.12443585 0.014795144 0.11259045 -0.09314788 -0.075199 -0.032658435 -0.028155612 0.059458967
0.072524376 0.16187496 0.048437763 -0.075818814 0.050065164 0.17055736 -0.051894043 0.17548838
-0.003147044 0.05043069 -0.07708292 -0.028252892 -0.06517967 -0.06019451 -0.022763632 0.124033995
-0.13147241 -0.10829281 -0.104882136 -0.118898526 0.1503783 -0.023738826 0.11005883 0.006796315
-0.10041169 0.039743233 0.0078060967 0.011457782 -0.038656715 0.074617185 0.028395139 0.06407817
-0.013344626 -0.09844354 0.038083185 0.18443112 -0.026413012 -0.024257122 -0.029602414 -0.07524103
-0.07597519 0.07774555 0.17936333 0.072391696 -0.19732293 0.21195138 -0.031874746 0.0013672557
-0.12130642 0.30765104 -0.102104396 0.08410609 0.052333836 0.020988317 0.07319576 -0.17167212
0.1666648 -0.042644724 0.06940746 -0.01144791 0.0038500577 0.11920226 0.027615737 -0.13477834
-0.028931657 0.17103907 -0.071201235 0.0046894345 0.016903121 0.07606899 -0.01694828 0.015217634
-0.0096993195 0.017128129 0.023302076 0.00513754 -0.053859603 -0.077959 -0.1224826 -0.037121348
-0.03723931 -0.06344734 -0.14432673 -0.03660251 -0.090200335 -0.020528765 0.011123055 0.039595738
-0.19366199 -0.06408322 -0.05531119 -0.014085058 -0.20806919 -0.036090106 0.057972215 0.3199451
0.114750236 0.030383686 0.10749339 -0.16933854 0.07986862 0.09458596 -0.089259215 0.038854983
0.11457005 -0.17527129 0.12088191 -0.041810643 -0.058578283 0.0290678 0.060987275 -0.05110927
0.22284053 -0.064666115 -0.06343924 -0.10209224 0.0847424 0.041051492 0.06233735 0.04710963
0.030414946 -0.11295223 0.14713329 0.16518305 -0.046333734 -0.012650606 0.035960205 0.030674422
0.0073396815 0.039537232 0.011515806 0.100601345 -0.16308743 0.02303774 -0.01855065 -0.025742605
0.0722452 0.1822067 0.1053868 0.07688477 0.22237016 0.092482604 -0.18462066 -0.025288165
-0.0031085934 -0.1579639 0.04595432 0.101243876 -0.0119965635 0.1444893 -0.02356004 -0.015424928
0.117358334 0.13910894 -0.05967469 -0.08713356 -0.16702542 0.16979623 0.034428373 0.044748966
-0.18615898 0.02974945 0.21721727 0.09473164 0.060082313 0.096459076 0.07362365 -0.02678888
-0.22801076 -0.014507974 0.038142543 0.18813787 0.044727508 0.053081796 0.012025252 -0.08021891
0.22981377 0.03141214 0.07566684 0.1537051 -0.3676611 0.22829619 0.015377967 -0.011078643

network_body._body_endoder.seq_layers.0.bias f4 [128]
00000000: 6d52 7cbb 0df2 8b3c 107d 993c 69b9 4c3c
00000010: 128a aa3c dd81 33bc 87ed 093d 4fd7 683d
00000020: 0bde 3d3c c3ed e23c 8785 74bc 6168 a53c
00000030: 43a1 f63c fe30 523c 81ce 283d eca8 6f3c
00000040: dfa5 803b cc2d acb7 6f5a b83c a4cd 473b
00000050: 75d3 e03b 5980 dc3c d35d b73c d186 e13c
00000060: 6ec7 843c 4aef c63c 45c9 b83c 8565 64bb
00000070: 7639 c63c f67c 643c 26c2 c93b 61da b43b
00000080: 32a8 8abb 75e4 743c d3ce 203d 0825 463d
00000090: 18bf fabb ac9c 683c 5eac 74bd e43b e73a
000000a0: a1bc 843c 1296 683d bf61 b43c fcf8 653c
000000b0: 3d14 7e3c d012 9f3c 429c ec3c cb66 a53c
000000c0: 77f6 c03c b72f 0e3d 04f6 e73c a64c 423c
000000d0: d0d3 cd3c d54d db3b 4b98 1a3d ed66 d53c
000000e0: 8491 dc3c a0f9 1b3d f449 183d 4133 f33c
000000f0: aef1 9d3c a863 503c 30df 483d 5fd8 a13c
00000100: dc32 ccbb 2be5 22bd 0de1 6d3d 0ae1 ed3c
00000110: 9f31 343c 93b5 2b3c cfb3 903b 7edb ba3b
00000120: 05c0 c13c c8c9 4c3d 5413 5d3c 638d e03c
00000130: 822f c03c a5f9 18bb 08cb 273c 4200 693c
00000140: de21 863c aa46 723d 48fb 1d3d a52a 893c
00000150: d360 0d3c 5752 003d aa15 093c 4efd debb
00000160: b088 85bb 439a 163d 1079 823c 44e0 623c
00000170: 15f9 ee3b d796 4b3c caf5 d93c 1c08 863d
00000180: daaf 4ebb eee2 763c cb64 b2ba 8f07 a43c
00000190: 86fd 843b 2cec 3c3c c935 cc3b d08c 7d3c
000001a0: b1c0 0b3d 9a5b 9c3b f2b7 c5bc 58d5 b33b
000001b0: 4808 c63b 3b18 1c3d 9c50 16bc ed45 ca3c
000001c0: 9117 193c 8028 7f3c 6ee6 943c b8c9 063c
000001d0: 8ded a83b 6eee e03c e3f9 c63c 5af8 aa3c
000001e0: e2a9 e53c cf78 e93c f6e1 c23c 390d d6bb
000001f0: 5f77 e9bb 0223 fd3c 39d7 743c d838 1c3d
-0.0038501278 0.017083192 0.018736392 0.012495377 0.02081779 -0.010956255 0.03367379 0.05684596
0.011588584 0.027701264 -0.0149244135 0.020191373 0.030106192 0.012829063 0.041212562 0.014627676
0.0039260234 -2.0525324e-05 0.02250406 0.0030487562 0.006861145 0.02691667 0.022383606 0.027530106
0.016208377 0.024284024 0.02255691 -0.003485055 0.024197321 0.013945809 0.0061571775 0.005519197
-0.004231476 0.0149470465 0.039259743 0.04837516 -0.0076521747 0.01419751 -0.059734695 0.001764175
0.016203227 0.056783743 0.022019265 0.014036413 0.015507755 0.01941815 0.028883103 0.020190617
0.023555024 0.034713473 0.028315552 0.011859095 0.025125414 0.006692628 0.037742894 0.026050055
0.026924856 0.038079858 0.037179902 0.029687526 0.01928028 0.012719072 0.049040973 0.019756494
-0.006231649 -0.039769333 0.058075953 0.029037971 0.010998159 0.010480302 0.004415966 0.005702435
0.023651132 0.04999712 0.013493378 0.027411168 0.023460153 -0.002334216 0.0102412775 0.014221253
0.016373571 0.05914942 0.03856972 0.016743967 0.008629042 0.031328525 0.0083669815 -0.0068050986
-0.0040751323 0.03676821 0.015926868 0.013847414 0.0072928765 0.0124261 0.02660646 0.065445155
-0.0031537921 0.015068753 -0.0013610361 0.020023135 0.0040585427 0.011530917 0.0062319976 0.015475467
0.03411931 0.004771662 -0.024135564 0.005488079 0.0060434677 0.038109045 -0.009174492 0.024691546
0.009343998 0.015573621 0.018176284 0.008226804 0.0051552714 0.027457442 0.024289077 0.020870376
0.028035108 0.028499989 0.023789387 -0.006532338 -0.007124826 0.030900482 0.014943891 0.038140148

network_body._body_endoder.seq_layers.2.weight f4 [128, 128]
00000000: 9451 a8bd 0681 923c 9d1c 813d 24ed 563d
00000010: d0c5 0a3e a89a 893d fbf2 283d b298 b6bd
00000020: c11a aabd 5bb5 36bc 0bc4 4fbd e400 4a3d
00000030: 8ed8 b7ba 1235 8e3c 0f1d 943c b191 103d
00000040: 8782 94bd 3b17 f0bc 396b 803d efd6 883c
00000050: 59f4 37be 4951 c43c 4f02 7dbd 2efe 723c
00000060: a0f1 f1bd a5c6 6d3d 42d1 3fbd 109c 833c
00000070: 0fbf e5bc 5d98 c43d e328 66be 008a aabd
00000080: f6e5 b63c 0547 8c3d 8013 59bd 505e e9bd
00000090: e940 6ebc 038c 0f3c 2eb7 a23c b9ee 763d
000000a0: 51d1 60bc 9203 31bc ceb2 0d3d cd2b 4cbe
000000b0: e7ad d63d 2d16 ffbc 2892 d53d 4237 7cbd
000000c0: f8b3 f33d 1615 7d3d e7e0 883b 9091 56bd
000000d0: 7a4c a63d 2253 e93c 85be 07bd b68b 9f3d
000000e0: 9fb1 593e 8e9b 733d fc91 723d 7e01 d03d
000000f0: f4df 9ebd daee 653d 98e6 483d 77a6 433e
00000100: a660 cdbd e79b cc3c 95bd e6bb a0eb dc3d
00000110: 2606 ce3a 5813 c9bd 8054 71bd c7c8 223d
00000120: 4c95 a03d c216 113d f984 d73c 642b 0bbd
00000130: 7c6f 883d 1ed9 9abd 0761 233d a044 dabc
00000140: e5b7 f1bd b793 b13d 1920 663d 04f6 94bd
00000150: a4d6 60bd a5cc 33bc 5a43 a13d 41b4 20be
00000160: 7117 4cbc 3bf5 c63c 1071 c63d 926b 443e
00000170: 3806 55bd b3ce a6bc e740 1d3e 8909 313e
00000180: c354 bfbd 29ea 233e 5b9e 4e3b 6f0d a53c
00000190: 521d cd3c 0d30 8d3d 15ef e1bc f2e5 193c
000001a0: a54b 07bc 0f08 123e 3096 0cbe ac33 ba3d
000001b0: b52e dfbd 02df 14bd 3937 a1ba 0c4d ba3d
000001c0: a42b 05be 3468 dcbd 1be0 183e 0a1d 69bd
000001d0: aec1 15bd 1eac 3d3e 77a3 9d3c 4666 3e3c
000001e0: d7ae e23d 4024 433d 7601 fdbc c823 edbc
000001f0: 87a7 ff3d f8ae 60bc a477 4d3a 39dc 263e
00000200: 24b3 133e 6aed 81be be3e e93c 5508 1cbd
00000210: 1676 a8bd 255a 6e3d 5122 65bd be25 e23d
00000220: 4fc0 853e 5935 f6bc 4666 68bd f6c1 673d
00000230: e081 acbd 4c48 d63d f461 983d fad1 8abc
00000240: 020e 1d3e 5c8a 0ebe 5e7f 83be b089 c33d
00000250: 644b ddbd 63e6 dabd 31b7 9a3d d17f 11bd
00000260: 42b6 e8bd b116 373d e4a8 b4bd f90f 3dbd
00000270: 4eb9 893c 7796 abbc 35fa 37bd 3b6a 1ebe
00000280: aa5e dbbc f236 933d 3176 d73d cb79 033c
00000290: 35b5 28bd 7269 c8bd 7fbe da3c e479 4a3c
000002a0: d44a cebd d7ef 07be ca08 95bd 7b66 213e
000002b0: 780d 86bc 82c3 0f3b 43e9 28bd 4a05 da3d
000002c0: 46e7 633d dce0 88bd c1a0 8abd 3227 273e
000002d0: 45ac 603c ced7 ba3d b81d a03d 6ce0 693d
000002e0: 42d2 033e df8f 96bc 4012 92b9 1381 443e
000002f0: 6aa8 073d 89a2 303d dcc3 91bd cebd 52bc
00000300: e751 753c 9ecc b9bb 7a40 ef3d 0a50 433e
00000310: 8aef c5bc 4d5b e43d 1efd 7b3d c312 fdbd
00000320: 4f9b c13c 5515 ab3d fd7e cc3d 652d a3bc
00000330: fda7 4fbd 5891 0dbe 0512 6d3d 42b3 153e
00000340: 3948 8a3d 4391 7bbd 6651 0e3e 1f13 56bd
00000350: 41aa debd 59a8 0dbe b883 00bd 057a 8b3c
00000360: 0e26 673d 14ca 423d c930 aa3c 347e 57be
00000370: 5998 b6bc af2a 943c 5d11 633c 619f 62bd
00000380: 78f7 f1bc a185 5ebd 92d1 21ba 71eb b53d
00000390: c47a a53c 13bb a33c 88cb 71bd e0d5 d03c
000003a0: bbf9 5ebd bdd0 86bd f77d 633e 6ad2 f2bd
000003b0: b6f5 053e e69f 2abd 3625 f93d 979e bf3c
000003c0: 01e8 89bd 0fd7 a43a 5cbd 0bbb 7c60 363e
000003d0: 12aa b63d b6f0 d9bb 2dab ef3d 18b6 8b3d
000003e0: adb9 5dbe c841 1c3e 1996 02be 8f5a cbbd
000003f0: d49c 2cbe 56e8 00bd 7098 fcbd d093 ab3d
-0.08218685 0.017883789 0.06304286 0.05247225 0.13552022 0.067189515 0.04124735 -0.08915843
-0.08305884 -0.011151637 -0.05072407 0.049317256 -0.001402633 0.01735929 0.018080262 0.035295192
-0.072514586 -0.029307952 0.06270451 0.01670405 -0.17964305 0.023964541 -0.06176978 0.014831109
-0.118136644 0.05805077 -0.046830423 0.016065627 -0.028045205 0.095993735 -0.22476535 -0.08327103
0.02232645 0.068494834 -0.052997112 -0.11394942 -0.014541843 0.008761409 0.019862738 0.060286257
-0.01372178 -0.010804074 0.03459435 -0.19938584 0.10482388 -0.031138504 0.10428268 -0.061576135
0.11899561 0.061787687 0.004177201 -0.052384913 0.081200555 0.028482024 -0.033140678 0.077903196
0.21259163 0.05947452 0.059221253 0.101565346 -0.077575594 0.05613599 0.049048036 0.1910647
-0.100282 0.024976684 -0.007041643 0.107871294 0.0015718385 -0.09818143 -0.058918476 0.039742257
0.07840976 0.035422094 0.026308523 -0.033976927 0.06661889 -0.07560943 0.039887454 -0.026644051
-0.11802653 0.086707525 0.056182954 -0.07273486 -0.054892197 -0.010974084 0.078741744 -0.15693761
-0.012456761 0.024286857 0.09689534 0.1918166 -0.052007884 -0.020362234 0.1535679 0.17288794
-0.09342339 0.16007294 0.0031527493 0.020148007 0.025038395 0.068939306 -0.027579824 0.009393202
-0.008257781 0.14260887 -0.13729167 0.09091887 -0.108975805 -0.03634549 -0.0012299783 0.09096727
-0.13004929 -0.10762063 0.1492924 -0.05691246 -0.03656166 0.18522689 0.019242985 0.011621064
0.11068504 0.047641993 -0.030884486 -0.028947726 0.12483125 -0.013713591 0.0007837957 0.16294946
0.14423805 -0.25376445 0.0284723 -0.038093884 -0.08225648 0.058191437 -0.05594093 0.11042355
0.26123282 -0.030054735 -0.05673816 0.05658146 -0.08423209 0.10463008 0.07440558 -0.016945828
0.15337375 -0.13919967 -0.2568311 0.09547746 -0.10805395 -0.10688474 0.07554472 -0.035522286
-0.11362888 0.044699375 -0.08821276 -0.04615781 0.016811993 -0.02094577 -0.04491635 -0.15470211
-0.026778538 0.07188214 0.1052059 0.008024643 -0.041188437 -0.09785737 0.026702164 0.012358163
-0.10072866 -0.13275085 -0.07277067 0.1576175 -0.016363844 0.00219366 -0.04123808 0.1064554
0.05564048 -0.066835135 -0.067689426 0.16323546 0.013712947 0.09123193 0.078181684 0.05709879
0.12873176 -0.01837915 -0.00027860887 0.19189863 0.033119597 0.043123756 -0.07117435 -0.012862636
0.01497314 -0.005670144 0.1168222 0.19073501 -0.024162073 0.11150227 0.06152069 -0.12357094
0.023633627 0.08353678 0.099851586 -0.019919107 -0.050697315 -0.13824975 0.057878513 0.14619163
0.06752057 -0.06141783 0.13898239 -0.05226433 -0.10872317 -0.13833751 -0.031375617 0.017025957
0.056432776 0.047555998 0.020775216 -0.21044236 -0.022289442 0.01808676 0.01385912 -0.055327777
-0.029536948 -0.054326657 -0.0006172891 0.088827975 0.02020014 0.019986665 -0.059031993 0.025492609
-0.05443738 -0.065827824 0.2221602 -0.118565395 0.13082013 -0.041656397 0.121653005 0.023391051
-0.06733704 0.00125763 -0.0021322584 0.17810243 0.08919157 -0.0066510094 0.11702571 0.06821841
-0.21652861 0.15259469 -0.1275257 -0.09929382 -0.168567 -0.031471573 -0.12333763 0.08377802

network_body._body_endoder.seq_layers.2.bias f4 [128]
00000000: 8294 1c3d dccf 38bb 731b f83c 26c1 1b3c
00000010: 8388 6a3c 3aa6 473d 9265 b83b 17b3 89bb
00000020: 243b 983c a132 293d 3be5 56b8 03e7 983c
00000030: c9c8 203c 1104 143c ba85 0c3d 727e 2c3d
00000040: 6270 d73c c9a8 1f3c 8e0b 2b3d 4c6f 74bc
00000050: 297c 82bb 5ada 703c f732 a53c 980d c33c
00000060: 7022 083d 9457 c23c fafb 033d 172b a93c
00000070: f4da e93c f44b 723d d3ab 803c 5605 4d3b
00000080: 11b1 2a3d 4be3 943b 0fd7 543d 5608 a73c
00000090: 777a e83c da4f 523b a769 a43c 9916 943c
000000a0: 0bc7 573c efed 31bc 3089 4e3d 4095 1e3d
000000b0: a63c 19bc 10ef 0c3d 4b97 ff3b 9d35 143d
000000c0: 7f42 2a3b bd4d e5ba a3b8 07bc 8488 4d3a
000000d0: 6d3f 983c bf84 013d 34ce d83b a69a fe3c
000000e0: a721 463d 1a6d f03b 34f8 123d 5299 d53c
000000f0: 906f f4bb bb73 f03c 4999 0d3d 9703 093c
00000100: 6628 293d 467e 3fbc db93 bd3b 6fa6 e6bb
00000110: e124 c33c d383 1a3d 91ac 7cbc f528 1e3c
00000120: 5d59 783c 291d 083d 406c 3bba 1a06 ca3c
00000130: 36c0 833c 85cc 2f3c cf00 0f3d 2616 ec3a
00000140: f4b8 193d f169 803c 5643 9c3c 504d c93b
00000150: 2101 0b3c 24f6 b43c e7f5 0a3c 265a 053a
00000160: aba9 9a3c e509 823b 0e5d 1f3d 9354 093d
00000170: 7c29 59b9 2f0c 143d 52be 213d dfaa e63c
00000180: 26b1 f33c 5ed0 3abb 6531 6a3c 70f4 7e3c
00000190: 28d8 ea3c 8cc0 0a3d 5053 293c a4b4 c8ba
000001a0: 3d2b 233b 575a 3a3d 296d 4c3c 9528 58bb
000001b0: db75 bebb c239 573d 1a9d 693d 435f b43b
000001c0: 9465 c93c 392f 823b df88 4d3c 51f5 413d
000001d0: 3c7c 5e3b a8d3 2c3d 1fd2 cfba d006 ff3b
000001e0: 8208 fb3c f0d3 023d 4817 103d 3b20 4b3d
000001f0: 4508 373d c796 4bba 52e0 8a3b 7d85 1d3d
0.038227566 -0.0028200066 0.030286526 0.009506499 0.0143147735 0.04874251 0.0056273425 -0.0042022574
0.018582888 0.04130805 -5.1235063e-05 0.018664842 0.009813496 0.009034173 0.03430722 0.042112775
0.026298705 0.009744831 0.041759066 -0.014919113 -0.003982086 0.014700497 0.020165903 0.023810193
0.033235967 0.023723401 0.032222725 0.02065043 0.028546788 0.059154466 0.015706932 0.0031283698
0.04167277 0.004543697 0.05196291 0.020389717 0.028378708 0.0032091052 0.02006991 0.018077182
0.013170014 -0.01085995 0.0504238 0.038716555 -0.009352839 0.034407675 0.007800018 0.036183942
0.0025979576 -0.0017494481 -0.008283767 0.0007840472 0.018584931 0.031620737 0.006616378 0.031079601
0.048371937 0.0073372247 0.035881236 0.026074085 -0.0074595883 0.02935206 0.034570012 0.008362672
0.041298293 -0.011687821 0.005785448 -0.0070388834 0.023821296 0.037723374 -0.015422002 0.00965332
0.015158025 0.033230934 -0.00071496144 0.024661113 0.016082864 0.010729914 0.03491288 0.0018011972
0.0375299 0.015675517 0.019075077 0.0061432496 0.008484156 0.022090025 0.008481479 0.00050869805
0.018879732 0.0039684647 0.038907103 0.033527922 -0.00020710187 0.03614443 0.039488144 0.02815765
0.029747557 -0.0028505544 0.014294003 0.015561208 0.028667524 0.033875033 0.010334805 -0.0015312624
0.0024897598 0.04549631 0.012477198 -0.0032983173 -0.0058123893 0.052545317 0.05703459 0.00550452
0.024584569 0.0039729145 0.01254484 0.047353093 0.0033948561 0.04219404 -0.0015855468 0.0077827945
0.030643705 0.0319404 0.035178453 0.049591284 0.04468562 -0.0007766303 0.004238167 0.038457382

action_model._discrete_distribution.branches.0.weight f4 [3, 128]
00000000: 2b35 1a3d 457c 2cbb a7d4 5e3c 0566 ad3c
00000010: 4edc 26bc e386 323d b96e 583c cda7 933b
00000020: 90d6 ec3b f53d 743d c313 ec3a e78c d6bb
00000030: 64b2 a7bb 183c 873c ae2b d2bc e1cc 183d
00000040: 5bb6 163d 1a76 3dbc d2ca 173d b0be 58bb
00000050: 7291 9ebc c4db a63c 137e 5fbd 329d aaba
00000060: 29ba 3f3c ef6a de3c c90a 593b b95f 153d
00000070: 85bb 173c 36c4 183d 418a 833b 07b3 cabc
00000080: b6f8 bebd 5d99 16ba 5ebc cb3d d036 af3b
00000090: c5cd 1fbd a1b3 8ebc c26b 443d 6a35 7ebd
000000a0: 8f9f 133c 5398 ddbc c3d9 13bd a252 fc3c
000000b0: c368 abbc fe55 333c 2606 bc3c 4f2c 623d
000000c0: 48d7 eb3b dc48 75bc bb40 b93c e091 203c
000000d0: 0f52 58bd 6133 003c 1425 fa3b 4e7c 853d
000000e0: d876 643d bca0 5bbb a061 df3c ab3e bfbc
000000f0: 8dfc a8bc a25f fb3b 6fa9 59bd 1d6d 6cbb
00000100: 34f7 ed3c 8238 83bc 383b 163c 88b6 d5bb
00000110: ba28 71ba 5407 a5bc c1fa 8fbc 7e02 a3bc
00000120: a06e 3cba f22a 563c 8d60 f2bc 68dc 063d
00000130: 9be0 73bc 4366 1e3c a20e 6fbd f33d 03bd
00000140: dbee 183c 7a22 22bd 15d8 8b3c 51c1 16bb
00000150: d9c4 62bc e432 783b 9530 e5bc e136 38bd
00000160: 19e7 08bd 8904 8cbc 2458 733d cfc3 56bc
00000170: 9e7b d8bc 3e23 76bd f993 4c3b 2d7c 19bb
00000180: 0ce4 0e3d e64f 093c 9fb5 78bc 4d72 0b3c
00000190: caf4 a6bd 385d c7bc e561 393b 628b 2cbc
000001a0: f374 9fbc 5110 46bd 417a 273c 4713 8dbd
000001b0: a537 96bc 551b 0e3d 9b3a 1b3d e0c4 073c
000001c0: f84b 723c d08c 043c 90f4 f8bb 8669 543d
000001d0: 59d7 e4bb 6729 a9bd f2ff 20bc ff52 23bc
000001e0: 8d10 463d 48fa 4dbd 3dcb 103d 8da0 ed3c
000001f0: aa87 9cbc 3727 e7bc cff0 17bd 4f08 9cbd
00000200: b222 6fbd 6061 043d 4c6e ae3c b957 1f3c
00000210: 7a99 f33b fae4 88bd adf8 043d fe5a 923c
00000220: ab10 3fbd eb0f 90bd 5633 2a3d ceb1 d03a
00000230: c8ce e03c 46c6 273d ec90 c4bc 9b26 8ebd
00000240: db9a 48bd 98e3 9e3c d96b 75bd ae23 ea3c
00000250: 3a18 693d 396c 563b 1a0c ba3a 75a8 023d
00000260: 2dfd 84bd 115a f73c 99ea c3bc b741 7bbd
00000270: 280b 60bd 96fc d53c ecfa 793b 7b3d 563d
00000280: 2627 db3c 4ea6 e83c bf2e e9bd ae01 703c
00000290: ab0b d63b 42ff fd3b 3d88 85bd a896 123d
000002a0: 780a 5a3d 0a0d 193d 36e0 d63c 92ea 79bd
000002b0: 1ebf 183d da5c c63c 7513 313c e86f aebd
000002c0: 44db d63c 6cf2 2f3d 6da1 ab3c fb1c 873c
000002d0: c301 083d 65e4 93bb 32af bc3c 1d6d 84bd
000002e0: 424f 7ebd 1685 143d 5509 9abd cdb8 633a
000002f0: 17a7 cc3c 302f 3e3c b930 953c fbed 003d
00000300: da92 a03c 646a fe3c 367e 663c 8be1 2c3c
00000310: f28b febc d336 363c 5cae 483c 3a5c 323d
00000320: 5b9d f23c a355 cc3c 70c4 3f3b 3984 0ebd
00000330: ac39 2d3c cb3e a63c f9fc 5a3d 2e71 ad3b
00000340: 14e4 b4bc beea 123c 8fa2 57bd a47b f8bb
00000350: 023a 183d ae47 843c 7b8f c9bb 24c3 453d
00000360: 6d0e 07bc 9417 1a3d 735d 88bd e621 86bb
00000370: add1 ed3c 3a79 0f3d dee2 8e3b bc66 113d
00000380: 94c5 3fbd 182c 3c3d e08f 123d f2d8 4abd
00000390: 005b 803d 6b00 853b 9b17 aa3c 0824 87bc
000003a0: 53f9 193a c21d a73c 955b 78bd ea6f 8e3d
000003b0: 2063 1c3d 0e15 51bd a2e0 6abd 031b 8d3c
000003c0: 5514 12bc d22d be3c 3672 143d c82d 64bd
000003d0: 84de 193d 6eed 253d 49e8 b23c b2e9 d03c
000003e0: b412 8abd 625f d03c 0c74 f5bc 44ce e5bc
000003f0: 5a3f c4bb 0121 483d 038a df3b a265 323d
0.03764836 -0.0026319188 0.013600505 0.02116681 -0.010184361 0.04358567 0.013209992 0.0045060874
0.0072277263 0.0596294 0.001801126 -0.0065475586 -0.0051177014 0.016508147 -0.025655594 0.037304763
0.036795 -0.011563802 0.03705866 -0.0033072643 -0.019356463 0.020368464 -0.054563593 -0.0013016819
0.011702099 0.0271506 0.0033118 0.03646824 0.009261017 0.037296496 0.004014284 -0.02474357
-0.093247816 -0.0005744899 0.099480376 0.0053471103 -0.039014596 -0.017419638 0.04795433 -0.06206266
0.00901021 -0.027050173 -0.036096346 0.030801121 -0.020923978 0.010945795 0.02295215 0.055218037
0.0071972944 -0.014970984 0.022613874 0.009800404 -0.052812632 0.00782475 0.0076338146 0.0651785
0.0557774 -0.0033512553 0.02726823 -0.023345312 -0.020628238 0.0076713124 -0.0531401 -0.0036075779
0.02904854 -0.016018156 0.009169392 -0.0065220036 -0.0009199489 -0.020145096 -0.017575623 -0.01989865
-0.0007188115 0.013071762 -0.029587055 0.03292504 -0.014885093 0.009667936 -0.058363564 -0.0320415
0.009334291 -0.03958366 0.01707081 -0.002300341 -0.013840877 0.003787213 -0.027977267 -0.04497421
-0.033423517 -0.017092006 0.05941023 -0.013108208 -0.026426133 -0.060092203 0.0031216128 -0.0023419962
0.03488545 0.008380866 -0.015180021 0.008511138 -0.081521586 -0.024336442 0.002828711 -0.010531278
-0.019464945 -0.048355404 0.010222019 -0.068884425 -0.01833708 0.034694035 0.037897687 0.008286685
0.01478862 0.008090213 -0.0075975135 0.051858447 -0.0069836793 -0.0825985 -0.009826647 -0.009968518
0.048355628 -0.050287515 0.035350073 0.02900722 -0.019107658 -0.028216941 -0.037094887 -0.07618772
-0.058382697 0.032319427 0.021292828 0.009725505 0.0074340673 -0.06684299 0.03246372 0.017865654
-0.046646755 -0.07034286 0.041552864 0.001592213 0.027442351 0.040960573 -0.023994885 -0.06940957
-0.048975807 0.019395635 -0.059917305 0.028581467 0.05690787 0.0032718314 0.001419428 0.031898934
-0.06493602 0.030194314 -0.023915576 -0.061341967 -0.05469814 0.026121419 0.0038143946 0.052304726
0.026752066 0.028399613 -0.11385869 0.014648838 0.0065321526 0.0077513764 -0.06520126 0.03578821
0.05323264 0.03736595 0.026229959 -0.06101472 0.03729164 0.024214197 0.010807862 -0.08517438
0.0262276 0.0429558 0.020950997 0.016493311 0.033204805 -0.0045133107 0.023032758 -0.06466124
-0.062087305 0.036259733 -0.07521311 0.00086869 0.024982018 0.01160793 0.01821171 0.031476956
0.019601274 0.03105659 0.014068177 0.0105518205 -0.03107259 0.01112147 0.012248602 0.043544985
0.029616049 0.024943179 0.0029261373 -0.034794066 0.010572832 0.020293614 0.05346391 0.005293033
-0.022081412 0.0089671 -0.052645262 -0.0075830985 0.037164696 0.01614746 -0.0061511374 0.048281804
-0.0082431855 0.037620142 -0.06658449 -0.0040933965 0.029030645 0.03502772 0.004360541 0.035498366
-0.046819285 0.04594049 0.03578174 -0.0495233 0.06267357 0.0040588877 0.02076321 -0.016496673
0.0005873639 0.020399932 -0.060634214 0.0695494 0.03818047 -0.05104547 -0.057343133 0.017224794
-0.00891598 0.023215208 0.036241733 -0.055707723 0.037565723 0.040509634 0.021839278 0.02550206
-0.067418486 0.025436107 -0.029962562 -0.028052457 -0.0059889974 0.0488596 0.006821872 0.043553956

action_model._discrete_distribution.branches.0.bias f4 [3]
00000000: 6275 723c 55a7 21bc d90f c6bc
0.014798494 -0.009866555 -0.024177479

action_model._discrete_distribution.branches.1.weight f4 [3, 128]
00000000: 98e6 a5bd 1215 4a3c 1e43 893a 06ed fa3c
00000010: 770b cc3b 243d 88bd c661 44bb b90d 3db8
00000020: 763e af3b 06a4 8fbd b925 ff3b fb2f 23bd
00000030: af24 df3b f125 293b ee10 5dbd 256f 85bc
00000040: e689 70bb 407a f73c 1c7e a2bd 654f 3b3c
00000050: 424d 103d 3310 a43c f6b7 a13c fabe 573c
00000060: fa27 aabc 5191 9a3b f3ab b2bc bf93 16bd
00000070: 3fcb 1739 26d5 82bc adc5 27bd 7387 773c
00000080: d806 f63c d256 28bb fabd 68bd d363 ad3b
00000090: ac84 b93c 0ac8 963c 7d74 edbc 5de1 a03c
000000a0: ae4c 9d3c dd33 383c 522c 7bbb 4652 6ebd
000000b0: c5c4 c23b 3ff2 123b eab4 193d e217 2ebd
000000c0: df1f 453c 7d4f ad3c 57f0 cd3c 728a 2d3c
000000d0: 4905 4b3d bcca 3bbd b722 ffba 568b 3ebd
000000e0: 0c1d 5abd 333f 9e3b b148 08bc 7ddb ecbc
000000f0: 58c4 0e3c 876c 823b b552 ff3c bf70 5d3d
00000100: 67e2 4ebc 2887 793c f838 df3b e820 fe3c
00000110: e2ad 11bd 74ef 0bbd a60a 483d 3a06 793b
00000120: 72bb f53a 8765 5c3b 78f1 afba 1491 17bd
00000130: 454e f33c 3fc0 98bb b879 a33c 5636 51b9
00000140: 62f3 63bd ba3c ba3c fa98 2fbd 6cc3 fbba
00000150: 11c9 2abc 779c 103c fe06 c1bc 04f2 de3b
00000160: c420 303d 563c 763c f696 50bd 9534 8cbc
00000170: 583c 3abc b0f2 6b3b 26a2 9abd 4827 61bc
00000180: edde 82bd ce6b b63c f8a6 093c f80f 0abd
00000190: ff85 8ebb a87e ab3c 3688 c03c 29e8 6bbb
000001a0: 2d05 893c b7a9 e03c c545 8e3c daa1 5b3d
000001b0: 4062 a33c f684 8e3c e41e 99bb 6538 413c
000001c0: 5ddd 3bbc 2216 173d 3216 3e3b 2702 89bd
000001d0: 7136 48bc f8ba fe3c 5a72 ec3c bc99 7b3a
000001e0: a2b8 0e3d 04a4 9c3b c1cc 1abd a6f8 7ebc
000001f0: 5f18 fabb b6d6 9d3c 5019 35bb 42f1 7a3b
00000200: 982f 8f3d 26b9 debc 1c76 2f3c 2549 e2bc
00000210: 32ea 2cbd eff5 da3d 4ab6 27bd 6bc8 9fbc
00000220: eb4c 5cbd 6764 d43d 1fb3 bebb 6219 ec3b
00000230: 4b58 1ebd 8e80 92bc 1575 8abc 4c60 033d
00000240: ca94 923c 809c 87bd a894 a03d 9350 cfbb
00000250: b1d0 c2ba a012 cabc 9c18 0fbd 23f6 aa3c
00000260: 3848 2a3d 3f32 24bd cf6d 303d 6feb a8ba
00000270: 3752 f4bd da01 b33d 7d0d 54bd 510c 8dbc
00000280: e6f6 debc b01c 8abc b043 413d 4112 27bc
00000290: 85de c6bc bbf5 87bd 76f7 92bc 1797 bfbd
000002a0: e43e cebd 0cda eebc b5ec c43c a381 863d
000002b0: 2d27 e2bc e9a2 a93c ed44 fbbc 6b36 d53c
000002c0: aeeb 29bb 7783 b83b fe80 fcbc a494 61bd
000002d0: 5dad 44bd fcbd c83d b80c eabc b72e a73c
000002e0: 3505 723d f92a 27bd fb08 db3c 3946 403d
000002f0: 5cb6 e8bb cecd 003b b0e4 a8bc 1c6c 71bd
00000300: 5006 763b 070d 3bbd fb77 ebbb eb51 97bb
00000310: b6fd 273c aeef 163d 5bcb e9bc 62a6 7bba
00000320: 3300 d73a ccfe 4f3c cd9a 04bd 4ab2 c73d
00000330: c413 33bd 2f89 aabc 0a3b 52bd 1664 c5bc
00000340: 7a0a aa3d 11e0 73bc 053b a03d 6504 2abc
00000350: 9f19 c5bb 25cf 9e3c adc2 f5bb d974 e0bc
00000360: 7aab 5dbd 99b5 f8b9 8e34 8c3d 85a2 ac3c
00000370: 62b2 07bc 84db b0bd 93fc 7c3d 798d b23b
00000380: a9d8 be3d 0de7 58bd 9f37 473c a2e5 a53b
00000390: d0e1 e5bd 2876 2abc 2cee 87bd 9a15 19bd
000003a0: da5a e7bc f8df 12bd 20b0 29bd d34d 8dbd
000003b0: f24a 05bd 52de 3f3d 59b3 2d3d f429 d5bb
000003c0: b3ee 91bd ddde f7bc 371e 17bc 3dba 5e3d
000003d0: 7354 b0bc 64b8 05bd dcba 57bb af42 84bc
000003e0: 3b3d 3839 1c56 b8bc 7631 843d 64b0 6d3d
000003f0: ce11 373d a246 00bd 3ad2 43bc 06ea f7bc
-0.08100623 0.012334125 0.0010472273 0.0306306 0.0062269527 -0.06652287 -0.0029965504 -4.507389e-05
0.005348022 -0.07013707 0.0077864793 -0.03984068 0.006809793 0.0025809968 -0.053971224 -0.01628835
-0.0036703288 0.03020966 -0.0793421 0.011432503 0.03522993 0.020027256 0.01974104 0.013168091
-0.020771015 0.00471703 -0.021810507 -0.036761995 0.00014476197 -0.015970778 -0.040960003 0.015107977
0.03003256 -0.0025686515 -0.0568218 0.005291441 0.02264627 0.018405933 -0.02898621 0.019638712
0.019201603 0.011242834 -0.0038325978 -0.05818393 0.005943867 0.0022422222 0.03752605 -0.042503245
0.012031524 0.021156067 0.025139017 0.01059209 0.049565587 -0.04584764 -0.0019465302 -0.0465196
-0.053250358 0.0048293113 -0.008318112 -0.028913254 0.008713804 0.0039802226 0.031167367 0.0540626
-0.012627221 0.015229978 0.006812211 0.03102155 -0.03556622 -0.034163907 0.04883828 0.0037998096
0.001874788 0.003362985 -0.0013423404 -0.03700359 0.029700408 -0.0046615894 0.019955501 -0.00019952035
-0.05565203 0.022734035 -0.0428705 -0.001920802 -0.0104239145 0.008826367 -0.023562904 0.006803753
0.042999998 0.015029034 -0.050925218 -0.017114917 -0.011366926 0.0036002807 -0.075504586 -0.013742276
-0.06390176 0.022268202 0.008401625 -0.033706635 -0.0043494697 0.020934418 0.02350245 -0.0035996533
0.0167261 0.027424676 0.017367253 0.05362115 0.01994431 0.017397385 -0.004672872 0.011793231
-0.011466351 0.036886342 0.0029004929 -0.06689864 -0.012220011 0.031095013 0.02886312 0.00095977983
0.03484405 0.0047802944 -0.037792925 -0.015562212 -0.0076323 0.019267421 -0.0027633496 0.0038290774
0.069915 -0.027187895 0.010709312 -0.027622769 -0.042215534 0.10691439 -0.04094533 -0.019504746
-0.053784292 0.10370713 -0.0058196927 0.0072051743 -0.03865842 -0.017883565 -0.016901532 0.032074258
0.017893214 -0.06621647 0.07840854 -0.006326744 -0.001486322 -0.024667084 -0.03493558 0.02086932
0.04157278 -0.04008698 0.04307347 -0.0012887547 -0.11929744 0.087405875 -0.051770676 -0.017217787
-0.02721734 -0.016859382 0.047183692 -0.010197223 -0.024276027 -0.06638666 -0.017940264 -0.0935499
-0.10070589 -0.029156707 0.024038652 0.06567695 -0.027606571 0.020707564 -0.030672515 0.026026925
-0.002592783 0.005630906 -0.030823227 -0.055073395 -0.048016895 0.09801862 -0.028570518 0.020408018
0.059086997 -0.040812466 0.02673768 0.04694197 -0.007101817 0.001965392 -0.02061686 -0.05894099
0.0037540384 -0.04566672 -0.0071859336 -0.0046179197 0.0102533605 0.03684967 -0.02853935 -0.0009599683
0.0016403258 0.012695026 -0.032374192 0.09750803 -0.04372002 -0.020817367 -0.051325835 -0.024095576
0.083027795 -0.014884965 0.07823757 -0.010377024 -0.006015017 0.019385884 -0.007500014 -0.027399467
-0.05411861 -0.00047437547 0.068459615 0.02107359 -0.008282276 -0.08635619 0.06176431 0.0054489938
0.093186684 -0.052954722 0.012159257 0.0050627748 -0.11224711 -0.010404147 -0.066372246 -0.037374116
-0.028241564 -0.035858124 -0.04142773 -0.068996094 -0.032542177 0.04684288 0.042407367 -0.0065052453
-0.071256064 -0.030257637 -0.009223512 0.05437683 -0.021524644 -0.03264655 -0.0032917773 -0.016145078
0.00017570418 -0.022501998 0.064547464 0.058029547 0.044694714 -0.03131736 -0.011951977 -0.030262958

action_model._discrete_distribution.branches.1.bias f4 [3]
00000000: ccab c2bc 4862 843c 13d7 eabb
-0.02376356 0.016160145 -0.007166752
