Assets/Models/CarDriver.onnx (onnx, 388110 bytes, 9 tensors)

discrete_action_output_shape f4 [1, 2]
0	0x40400000	3.0
1	0x40400000	3.0

network_body._body_endoder.seq_layers.0.weight f4 [256, 112]
0	0x3e4ef7a3	0.20211653
1	0x3da3b71a	0.07993908
2	0xbdf078d0	-0.11741793
3	0x3d7cb162	0.061692603
4	0xbb17a382	-0.002313823
5	0x3e4455be	0.19173333
6	0xbdc466c3	-0.09589913
7	0x3e3697f0	0.17831397
8	0xbe3402e2	-0.17579225
9	0xbc90beba	-0.01766907
10	0x3c2c5062	0.010517212
11	0x3d8d9001	0.06912232
12	0x3d1e2fa6	0.03861966
13	0xbd84f723	-0.0649245
14	0x3e1b46a0	0.1516366
15	0xbe1078dc	-0.14108604
16	0xbe72a753	-0.23696642
17	0x3e11a21b	0.14221995
18	0xbe46ac60	-0.19401693
19	0x3df168f6	0.11787598
20	0x3dd8532b	0.10562738
21	0xbdb66bcc	-0.08907279
22	0x3d87c616	0.06629579
23	0x3bef74d2	0.0073076272
24	0xbcc608fa	-0.024174202
25	0x3e1b451e	0.15163085
26	0xbc89867f	-0.016787766
27	0x3e57e9d3	0.2108529
28	0x3ce8a463	0.028398698
29	0x3c6942c4	0.01423711
30	0xbdf57b7e	-0.11986445
31	0x3ccbfb4c	0.024900101
32	0xbd3ca427	-0.046054985
33	0xbbac2c7a	-0.0052543255
34	0xbdf33b9a	-0.118766025
35	0x3ecf5234	0.40492404
36	0xbd5556d2	-0.05208475
37	0x3e83bf9f	0.25732133
38	0x3d7fac58	0.06242022
39	0x3d171ef6	0.03689476
40	0xbdc6c093	-0.09704699
41	0x3d90c9e1	0.07069755
42	0xbd91ad5a	-0.07113142
43	0x3e42f5c9	0.19039072
44	0x3d271f38	0.040801257
45	0xbdcf69df	-0.10127615
46	0x3e096ff6	0.13421616
47	0x3d56500c	0.052322432
48	0xbdbe689d	-0.09297297
49	0x3d8e5134	0.06949082
50	0x3e28c764	0.16482311
51	0x3e8837ef	0.26605174
52	0x3ec0d0f0	0.37659407
53	0xbe378640	-0.17922306
54	0xbdb287cf	-0.0871731
55	0xbd551265	-0.052019496
56	0x3e3e65a9	0.18593468
57	0x3e044e1d	0.12920423
58	0xbe5536e8	-0.20821726
59	0xbd9c75ef	-0.076396815
60	0xbe4f1de7	-0.2022625
61	0x3d8f1106	0.06985669
62	0xbd77b091	-0.06047112
63	0x3dc42952	0.09578194
64	0xbe426758	-0.18984735
65	0x3e63ec83	0.22258191
66	0xbd383bf3	-0.044979047
67	0xbd926f6f	-0.071501605
68	0xbc07ff41	-0.008300603
69	0x3c83d488	0.016092554
70	0x3df73ac7	0.12071758
71	0x3e92f173	0.28699836
72	0x3d048deb	0.032361906
73	0xbd8572b5	-0.06516019
74	0x3e5dd1b9	0.21662034
75	0x3c4821fd	0.012215135
76	0x3e014818	0.12625158
77	0xbe461cc8	-0.19346917
78	0xbe036017	-0.12829624
79	0x3c8d597a	0.01725458
80	0xbc86fae5	-0.016477058
81	0x3e08ffc1	0.13378812
82	0x3de40cb7	0.11135238
83	0x3c0998e8	0.008398272
84	0x3e0f12a4	0.13971955
85	0xbe94e7e8	-0.2908318
86	0xbe9857c0	-0.29754448
87	0x3e5c913b	0.21539776
88	0x3e0dfa9d	0.13865133
89	0x3cdc35d7	0.026881142
90	0xbcba0c79	-0.022711026
91	0x3d85fc78	0.06542295
92	0x3d61d87d	0.0551381
93	0x3dca0abf	0.09865331
94	0xbdf85fd5	-0.121276535
95	0x3e18e6e8	0.14931834
96	0xbc71db43	-0.014761749
97	0xbd602e07	-0.054731395
98	0x3e792b6a	0.24332967
99	0x3d269669	0.040670786
100	0xbd0041a9	-0.03131262
101	0x3dbfa846	0.093582675
102	0x3e519351	0.20466353
103	0x3e3d1806	0.18466195
104	0x3dbe669f	0.09296917
105	0xbe85227f	-0.2600288
106	0xbe64de37	-0.22350393
107	0x3e05ce56	0.13066992
108	0x3d95d0b2	0.07315196
109	0xbd615846	-0.055015825
110	0xbc822281	-0.015885593
111	0x3dfb8919	0.12282009
112	0x3e237a3b	0.15964596
113	0x3d20af27	0.03922954
114	0xbdd5e010	-0.10443127
115	0xbe2af519	-0.1669506
116	0x3e02d711	0.12777354
117	0xbd87f2ff	-0.06638145
118	0x3cb59451	0.02216545
119	0x3e405356	0.1878179
120	0x3d412842	0.047157533
121	0x3c3a2907	0.011362321
122	0xbe3f7cee	-0.187
123	0xbe00870e	-0.1255152
124	0xbd78331d	-0.06059562
125	0xbc3d5c21	-0.01155761
126	0xbe1c30a5	-0.15252931
127	0x3e81cf9f	0.25353715
128	0xbd6c4822	-0.05768598
129	0xbca580ea	-0.020203073
130	0xbe10d9e9	-0.14145626
131	0xbe507275	-0.20356162
132	0x3c361e5c	0.011115637
133	0xbdb50ec6	-0.088407084
134	0xbe851dad	-0.25999203
135	0xbc06abd1	-0.008219675
136	0xbdad9dc5	-0.08477358
137	0xbd806cb8	-0.062707365
138	0x3d71ae2a	0.059003986
139	0xbd8ef488	-0.069802344
140	0xbd1bf5d5	-0.03807624
141	0xbbc2617c	-0.005932031
142	0xbe9111a3	-0.28333768
143	0xbdcfed06	-0.101526305
144	0xbccd59a6	-0.025067162
145	0xbc8e268c	-0.017352365
146	0xbc8ee14d	-0.017441416
147	0xbd958ae8	-0.07301885
148	0x3e1bcb9b	0.15214388
149	0x3dd1f385	0.10251526
150	0xbd9efce1	-0.077630766
151	0x3dcc0f9e	0.09963916
152	0xbbf11a7e	-0.0073578944
153	0x3da02532	0.078195944
154	0xbe22d1f5	-0.15900405
155	0xbd724673	-0.059149217
156	0x3cb62e1d	0.022238785
157	0x3d3a022f	0.04541224
158	0xbddb5c28	-0.10710937
159	0xbe29d646	-0.16585645
160	0xbdf0a5c0	-0.11750364
161	0x3d3e9f34	0.046538547
162	0xbe434675	-0.19069846
163	0x3cf47e4b	0.029845377
164	0x3cd748f0	0.026279896
165	0x3da915c3	0.08256104
166	0xbcfa16db	-0.030528476
167	0xbe433006	-0.19061288
168	0xbd8bf762	-0.06834294
169	0x3e524ff4	0.20538312
170	0xbdbfc2c8	-0.093633235
171	0xbd48ab35	-0.0489914
172	0x3dd728d9	0.10505838
173	0x3d032a46	0.032022737
174	0x3d52f03b	0.051498633
175	0xbde46299	-0.111516185
176	0x3e462bdd	0.1935267
177	0xbe8c7d93	-0.27439556
178	0x3d29c170	0.041444242
179	0x3e0d3e5a	0.13793316
180	0x3da473d2	0.080299035
181	0x3dd07053	0.10177674
182	0x3dab2394	0.08356395
183	0xbe08bc0c	-0.13352984
184	0xbcd2e77a	-0.025745142
185	0xbde3c4f5	-0.11121551
186	0x3db18a9a	0.08669014
187	0xbd966002	-0.07342531
188	0xbc96f3cd	-0.0184268
189	0x3d5db3f3	0.05412669
190	0x3def760e	0.11692439
191	0xbeb0a5b6	-0.34501427
192	0x3d89ed7b	0.06734749
193	0xbe639f47	-0.22228728
194	0xbd28b72e	-0.04119032
195	0xbd848212	-0.064701214
196	0x3e482d07	0.19548427
197	0x3d5a516a	0.0533003
198	0x3e104975	0.14090522
199	0xbdb3537c	-0.08756158
200	0xbdf5b676	-0.11997692
201	0xbcb35889	-0.021892803
202	0xbe1374e8	-0.14400065
203	0xbcb4c40b	-0.022066137
204	0x3de62f34	0.11239472
205	0x3d808e60	0.06277156
206	0xbd017a42	-0.031610735
207	0x3d9a8479	0.075447984
208	0xbd3ec75d	-0.046576846
209	0x3c1574c7	0.00912208
210	0xbdb0e93b	-0.08638235
211	0x3e8fbd73	0.28074226
212	0x3cca97e7	0.024730636
213	0x3e7190a6	0.23590335
214	0x3e4d43a8	0.2004534
215	0x3e32d8ca	0.17465511
216	0x3d83743c	0.06418654
217	0xbbb8d532	-0.0056406492
218	0xbcdefd67	-0.027220441
219	0x3dd3c142	0.103395954
220	0x3c42b31b	0.011883522
221	0x3c8c7c3d	0.017149085
222	0x3ca25d0a	0.019819755
223	0x3dd80b89	0.10549075
224	0x3d92adf1	0.07162083
225	0xbdb1891f	-0.08668732
226	0xbd97eddf	-0.07418417
227	0x3bc319a1	0.005953983
228	0x3d51d818	0.051231474
229	0xbbc02c10	-0.0058646277
230	0x3c54ab24	0.012980256
231	0xbdc58f9e	-0.096465334
232	0xbeb2dcaa	-0.34933978
233	0x3d0f3a95	0.034967978
234	0x3d1a8fb0	0.037734687
235	0x3ebb5392	0.36587197
236	0x3dfa4be4	0.12221506
237	0xbe1ac1fc	-0.15113062
238	0xbcbc91a1	-0.02301866
239	0xbe098881	-0.13430978
240	0xbe1cc97c	-0.15311235
241	0xbc58989d	-0.01321998
242	0xbe5dba03	-0.21652989
243	0x3e5893ba	0.21150103
244	0x3cadda90	0.021222383
245	0x3df4da45	0.11955694
246	0x3dac96b2	0.0842718
247	0xbd746668	-0.059667975
248	0xbc3cc53b	-0.011521633
249	0xbd858c1f	-0.065208666
250	0xbc0f095c	-0.008730259
251	0x3e80d39b	0.25161442
252	0xbdbc8b7e	-0.092062935
253	0xbd4a1dc3	-0.04934479
254	0x3d0d4aeb	0.034495275
255	0x3e54c833	0.20779495

network_body._body_endoder.seq_layers.0.bias f4 [256]
0	0x3bac11b2	0.005251133
1	0x3ca66b21	0.020314755
2	0x3c83514e	0.01602998
3	0x3c63ce80	0.013904214
4	0x3cd7bfdc	0.026336603
5	0x3dde8ec9	0.10867078
6	0xbbca2c9f	-0.00616987
7	0xbc043aba	-0.008070642
8	0xbc192bb0	-0.009348795
9	0x3b4400c6	0.0029907688
10	0x3d82f0d1	0.06393588
11	0xbc278cb9	-0.010226422
12	0x3c5c3433	0.01344018
13	0x3c10b25a	0.008831585
14	0x3d042333	0.03226013
15	0x3c83e24b	0.016099116
16	0x3c878110	0.016541034
17	0x3c8ece21	0.017432274
18	0xbd344bdd	-0.04401766
19	0x3bfa645e	0.007641359
20	0xbb5e1685	-0.0033887934
21	0x3c8ed131	0.017433735
22	0x3c389c82	0.011267783
23	0x3cee72d8	0.029107496
24	0x3d63b918	0.05559644
25	0x3d3cfa36	0.046137057
26	0x3d078295	0.033083517
27	0x3bd8c16c	0.0066148546
28	0x3d840b87	0.06447511
29	0x3c3ef179	0.011654251
30	0xbc13f826	-0.009031331
31	0x3d092cfa	0.03349016
32	0x3d81c67f	0.06336688
33	0x3ce8d794	0.028423108
34	0x3ceff1bc	0.029290073
35	0x3d197181	0.03746176
36	0x3caf70de	0.021416124
37	0x3dad5d2f	0.08465039
38	0xbb8ec00a	-0.004356389
39	0x3a18ac43	0.0005824009
40	0xbd067ee7	-0.032835867
41	0x3cc76611	0.024340661
42	0xbcb5e3d1	-0.022203358
43	0x3d2116be	0.03932833
44	0x3c1cfa29	0.009581127
45	0x3cdc0962	0.026859943
46	0x3d073061	0.033005122
47	0x3a9f2a52	0.001214335
48	0x3cf21e19	0.029555367
49	0x3d03f3b9	0.032214854
50	0x3d072edf	0.033003684
51	0x3ccb0f8d	0.024787689
52	0x3ad92633	0.001656717
53	0x3d97220e	0.07379542
54	0x3c12a792	0.008951085
55	0x3bad4ff6	0.005289073
56	0xbcb96b2e	-0.022634115
57	0x3d90501d	0.070465304
58	0x3d692cb9	0.056927416
59	0x3d99f891	0.075181134
60	0x3b8007d0	0.0039071813
61	0xbce0db06	-0.027448189
62	0x3c75cfac	0.015003126
63	0xbb35492d	-0.0027662024
64	0x3d92110d	0.071321584
65	0x3d229675	0.03969427
66	0x3d54ab46	0.05192115
67	0x3d671f70	0.056426466
68	0xbc47690d	-0.012171042
69	0x3c1b625a	0.009483898
70	0xbb7fffcf	-0.0039062386
71	0x3d488c0c	0.048961684
72	0x3c2eb805	0.010663991
73	0xbc1628eb	-0.009165029
74	0x3c9862dd	0.01860183
75	0x3cd269cb	0.025685212
76	0x3d12e9e0	0.03586757
77	0x3d204358	0.039126724
78	0x3d1a86f7	0.03772637
79	0x3cb6c71a	0.022311736
80	0x3d2b33e0	0.04179752
81	0x3c427fd4	0.011871297
82	0x3d559c3c	0.05215095
83	0x3cb5de12	0.022200618
84	0xbc6ce4c9	-0.0144588435
85	0x3bd8beee	0.0066145575
86	0x3cabd36f	0.020974843
87	0x3d4c3c8b	0.049862426
88	0x3c277aba	0.010222131
89	0xbbd46e11	-0.0064828475
90	0xb9d676db	-0.00040905815
91	0x3a845832	0.0010097085
92	0x3db3e261	0.08783413
93	0xbc4fb730	-0.012677953
94	0xbc52ab61	-0.012858243
95	0x3d4168c7	0.047219064
96	0x3d65b696	0.05608233
97	0xbbfb0201	-0.007660151
98	0xbc0d5250	-0.008625582
99	0xbc031f0d	-0.008003009
100	0x3c3e6cbf	0.011622607
101	0x3c4bec7a	0.012446517
102	0x3d3b9d4b	0.045804303
103	0x3da12168	0.078677
104	0x3d556066	0.052093886
105	0x3cc6676b	0.024219235
106	0x3a7a1292	0.00095395104
107	0x3d860d62	0.06545521
108	0x3c9e1723	0.019298142
109	0x3ce4df2e	0.027938452
110	0x3d505e46	0.050871156
111	0x3a9d1b20	0.0011986233
112	0x3d78a59f	0.060704824
113	0xbc374df0	-0.011188015
114	0x3d38da13	0.045129847
115	0xbb8a8487	-0.0042272243
116	0x3d093914	0.0335017
117	0xb91da33b	-0.00015033495
118	0x3bbcdd17	0.0057636607
119	0x3d917e7f	0.07104205
120	0x3d15cbd6	0.036571346
121	0xbbb9303a	-0.005651501
122	0x3988e480	0.00026110187
123	0xbc5d08d8	-0.013490878
124	0xbbdea4e7	-0.0067945602
125	0xbc9ac675	-0.01889346
126	0x3d739675	0.05946966
127	0x3cd4b458	0.0259649
128	0x3d01a97a	0.031655766
129	0x3bb325a2	0.0054671327
130	0x3d3e7f7b	0.046508294
131	0x3d3bbfd9	0.045837257
132	0xbc30229f	-0.010750442
133	0x3c3d976d	0.011571747
134	0xb9e562bc	-0.00043751847
135	0x3c064ad0	0.008196548
136	0x3c8de2c3	0.017320042
137	0x3d7bd3f2	0.061481424
138	0x3ca164d4	0.019701399
139	0xbc78ab4a	-0.015177557
140	0x3d80d798	0.06291121
141	0x3d2745d7	0.04083809
142	0x3bbd4d58	0.0057770424
143	0xbca2f442	-0.019891862
144	0x3c187f4d	0.009307695
145	0x3c53cced	0.012927276
146	0x3ccfb66b	0.025355538
147	0x3cdd30e2	0.027000848
148	0x3d488eff	0.048964497
149	0x3d0f8c6b	0.035046022
150	0x3c98be05	0.018645296
151	0x3d01bb17	0.031672563
152	0x3c7e0d3d	0.015506086
153	0x3cd167e4	0.025562234
154	0x3d4d8d5d	0.050183643
155	0x3d755836	0.059898578
156	0x3cbda8c6	0.023151767
157	0x3c566c7d	0.013087389
158	0x3ce337bc	0.027736537
159	0x3d3ceea9	0.04612604
160	0xbc329ac4	-0.010901157
161	0x3c1b14f9	0.0094654495
162	0x3be26861	0.0069094156
163	0x3cd5ff64	0.026122756
164	0x3d9c9942	0.07646419
165	0xba1854a6	-0.00058109534
166	0x3d6b4b9f	0.057445165
167	0x3ba5295d	0.0050403313
168	0x3c99ab9c	0.018758588
169	0xbca2881a	-0.019840289
170	0xb882d53b	-6.2386e-05
171	0x3dae4fa3	0.08511283
172	0xba592778	-0.00082837744
173	0xbba2ffb6	-0.004974331
174	0x3c74732d	0.014920038
175	0xbb240945	-0.002502994
176	0x3c80309b	0.015648177
177	0x3c7cabb4	0.015421797
178	0x3b347ea2	0.00275413
179	0xbc130732	-0.008973883
180	0xbc4d7372	-0.012539731
181	0x3b68276a	0.0035423883
182	0xbb8d587d	-0.004313527
183	0x3b5ca749	0.0033669046
184	0x3d233867	0.03984871
185	0x3d80f93f	0.0629754
186	0xbba6027e	-0.005066215
187	0x3bb61513	0.0055567115
188	0x3c26aa8f	0.0101725
189	0x3cd5197b	0.026013127
190	0x3ad8d6ba	0.0016543486
191	0x3d856780	0.06513882
192	0x3c869539	0.016428577
193	0x3cebdc88	0.028791681
194	0x3cd9e53f	0.02659857
195	0x3b93b6f9	0.004507896
196	0x3beb5154	0.007181326
197	0x3c5a6b0f	0.013331189
198	0x3ca940aa	0.020660717
199	0x3b4ea185	0.0031529379
200	0x3a8ab8d5	0.0010583649
201	0xbb4e93a2	-0.0031521101
202	0x3a1cb891	0.000597843
203	0x3b3d9e94	0.0028933631
204	0xbc8c18cb	-0.017101666
205	0x3c699e02	0.014258863
206	0x3d5c8bbe	0.053844206
207	0xb8703c0a	-5.7276375e-05
208	0x3cdcbc7c	0.026945345
209	0x3ac6ad40	0.0015157834
210	0xbc8284df	-0.015932498
211	0xbb96502b	-0.0045871935
212	0x3d8ecf75	0.06973163
213	0x3d2808c8	0.041024
214	0x3d1f9b0c	0.038966224
215	0x3bdd31eb	0.0067503355
216	0x3d2efd2c	0.042721912
217	0x3d4b091e	0.04956924
218	0x3db128be	0.08650349
219	0x3d3fb3af	0.04680222
220	0x3d66d546	0.056355737
221	0x3c31ec35	0.010859539
222	0xbb9d2a49	-0.0047963005
223	0x3d18524d	0.037187863
224	0x3c9d4b2d	0.019200886
225	0xbc29f8c8	-0.0103742555
226	0x3d321a25	0.043481965
227	0x3d3d6ed5	0.046248276
228	0x3cf65f43	0.030074721
229	0x3d1adf8c	0.037810847
230	0xbccc7e13	-0.02496246
231	0x3cb08c44	0.021551259
232	0x3bf5b9b5	0.0074989446
233	0x3ddb43ac	0.10706267
234	0x3d1ea5d4	0.038732365
235	0x3d3bee8d	0.045881797
236	0x3cc21429	0.023691254
237	0xbaa00853	-0.0012209512
238	0x3d325daa	0.043546356
239	0x3c56fa17	0.0131211495
240	0x3d3a2ceb	0.045452993
241	0x3cb63b6d	0.022245133
242	0x3d32cd89	0.043653045
243	0x3d01d565	0.03169765
244	0x3d017043	0.0316012
245	0x3cf0c405	0.029390344
246	0x3d249ed1	0.04019052
247	0x3c3446de	0.011003224
248	0x3d04e611	0.03244597
249	0x3d0d5319	0.034503076
250	0x3d034e4b	0.032057088
251	0x3d46b481	0.048511986
252	0x3ce4d051	0.027931364
253	0xbbd8c103	-0.0066148057
254	0x3d8bf1c7	0.06833225
255	0xbcaf7563	-0.021418279

network_body._body_endoder.seq_layers.2.weight f4 [256, 256]
0	0x3d55f8ff	0.052239414
1	0x3dd0bdf3	0.1019248
2	0x3ba851c7	0.0051367017
3	0x3c842625	0.01613147
4	0x3cd35e4b	0.025801798
5	0x3df9ad72	0.12191285
6	0xbd7366fd	-0.05942439
7	0xbe3639ea	-0.1779553
8	0x3d77068b	0.060308974
9	0xbdf0d31d	-0.11759017
10	0xbe2023cf	-0.1563866
11	0x3cfc034c	0.03076329
12	0xbc967e25	-0.018370697
13	0xbe16c237	-0.14722525
14	0x3e0d902b	0.13824527
15	0x3dca11b5	0.098666586
16	0x3e1f52c5	0.15558918
17	0x3d5661d9	0.05233941
18	0x3d15f675	0.036611993
19	0x3d387e50	0.045042336
20	0x3e3073d4	0.17231685
21	0x3e44328c	0.19159907
22	0x3e2f9f45	0.171506
23	0xbdbc3130	-0.09189069
24	0x3dd1e053	0.102478646
25	0xbebb77a8	-0.36614728
26	0x3eb70514	0.35746062
27	0x3d6323f0	0.055454195
28	0xbdc6b2e1	-0.09702087
29	0x3dec3931	0.11534346
30	0x3e0d2b27	0.13785993
31	0xbe862858	-0.26202655
32	0xbd04d161	-0.03242624
33	0xbe0552e5	-0.13019903
34	0xbd0be395	-0.034152586
35	0x3e616f1a	0.22015038
36	0x3d1001d9	0.035158012
37	0xbd55f6b7	-0.05223724
38	0x3dc8b226	0.09799604
39	0x3d7200df	0.059082862
40	0xbe0fd0bf	-0.14044474
41	0x3de11567	0.1099041
42	0x3d06d08b	0.032913726
43	0x3d762642	0.06009508
44	0x3cfeedc0	0.031119227
45	0xbd35b0e1	-0.044358138
46	0xbe18d6c4	-0.14925677
47	0xbdc26e04	-0.0949364
48	0x3d9764f8	0.07392305
49	0xbb8085c5	-0.0039221966
50	0xbdcd49f5	-0.10023872
51	0x3e46f9e6	0.19431266
52	0xbde95e8f	-0.11394989
53	0x3e584a17	0.21122013
54	0x3df27575	0.118388094
55	0x3e0c0ee3	0.13677554
56	0xbd289b8e	-0.041163974
57	0x3e43a825	0.19107111
58	0xbd3db5b1	-0.046315853
59	0x3c033d05	0.008010154
60	0xbd528c38	-0.051403254
61	0x3d2c4ef4	0.042067483
62	0x3e0dc836	0.13845906
63	0x3de6c51c	0.112680644
64	0xbe1217f6	-0.14266953
65	0xbd0f8d29	-0.03504673
66	0x3cae83d6	0.021303099
67	0xbe0388dc	-0.12845176
68	0xbdefa50a	-0.117014006
69	0x3dc06306	0.09393887
70	0x3d679031	0.056533996
71	0xbcbb96a8	-0.022898987
72	0xbd18cba4	-0.03730358
73	0x3db2ade7	0.087245755
74	0xbe08b250	-0.13349271
75	0x3dbc24fd	0.091867425
76	0xbe6c2ecd	-0.23064728
77	0x3c07469e	0.008256583
78	0x3e2c95e1	0.1685405
79	0x3e18a770	0.14907622
80	0x3d44a63b	0.048010092
81	0x3dfcd733	0.123457335
82	0xbdc57e5c	-0.09643242
83	0x3dd4e89b	0.103959285
84	0x3d692a8e	0.05692535
85	0x3d88d245	0.06680731
86	0xbd73ba0e	-0.059503607
87	0xbd132cd2	-0.035931416
88	0x3e9587dd	0.29205218
89	0x3debe138	0.115175664
90	0xbe87ba3f	-0.26509282
91	0x3da2abd5	0.079429306
92	0xbe0ff8e0	-0.14059782
93	0xbdd3f575	-0.103495516
94	0x3e412350	0.18861127
95	0xbda93e91	-0.08263887
96	0xbdbcc011	-0.09216321
97	0x3e3e7959	0.18600978
98	0x3c1f9ffd	0.009742734
99	0x3db30d72	0.08742799
100	0xbd869fa0	-0.06573415
101	0x3b9be398	0.004757356
102	0x3de3caf7	0.11122697
103	0x3de31d5a	0.11089583
104	0xbe1d5ec9	-0.15368189
105	0xbdb0d796	-0.0863487
106	0x3d95ccbb	0.0731444
107	0xbb3c28cd	-0.0028710843
108	0x3d6485f9	0.05579183
109	0xbea99cad	-0.33127347
110	0x3e037794	0.12838584
111	0xbe1247f7	-0.14285265
112	0xbc05479e	-0.008134751
113	0xbd45ca2d	-0.048288513
114	0xbd52483f	-0.05133843
115	0x3d566543	0.052342664
116	0x3b0de99f	0.0021654142
117	0xbea5bbfa	-0.32369977
118	0x3c8962f4	0.016770817
119	0x3df97722	0.12180926
120	0xbdd01b0b	-0.10161408
121	0x3cd1bbec	0.025602303
122	0xbc7f87aa	-0.01559631
123	0xbd245dfa	-0.040128686
124	0xbb8dd1a1	-0.004327968
125	0xbe0d2d74	-0.1378687
126	0x3e813e93	0.25243053
127	0xbd8b93b6	-0.06815283
128	0xbcb87488	-0.022516504
129	0x3cb05971	0.021527024
130	0xbe2c8346	-0.16846952
131	0xbdf3c7ad	-0.119033195
132	0x3d1cafca	0.038253583
133	0x3b48cbb9	0.0030639006
134	0x3cdb9c28	0.02680786
135	0x3dce21e7	0.1006506
136	0x3d5ca022	0.053863652
137	0xbd994c4c	-0.074852556
138	0x3d002e61	0.03129423
139	0xbda6a5f8	-0.08137125
140	0xbe5be7bd	-0.2147512
141	0x3e0e2818	0.13882482
142	0xbb88c683	-0.004174055
143	0x3dc66d18	0.09688777
144	0x3dd652fa	0.10465045
145	0x3da0d07c	0.07852265
146	0xbd697782	-0.056998737
147	0xbd97333b	-0.07382818
148	0x3d5f6589	0.05454019
149	0x3e065a4b	0.13120382
150	0xbc625dda	-0.013816321
151	0x3aa69d05	0.001271159
152	0xbe31f4d2	-0.17378548
153	0x3e3dd5e0	0.18538618
154	0xbc4e9e1b	-0.0126109375
155	0x3e4a8701	0.19778062
156	0xbd8924cf	-0.06696474
157	0x3d22c7f0	0.039741457
158	0x3c8dc058	0.01730363
159	0x3d5d1992	0.053979464
160	0xbe2697f5	-0.16268905
161	0xbe326865	-0.17422636
162	0x3c01efbc	0.007930692
163	0xbda29a93	-0.07939639
164	0x3d81dfd7	0.06341522
165	0xbd906133	-0.07049789
166	0xbe5eda88	-0.2176305
167	0xbdabbb04	-0.0838528
168	0xbeb0ab15	-0.34505525
169	0xbe5d5feb	-0.21618621
170	0xbd67fa94	-0.056635454
171	0xbccad385	-0.024759063
172	0xbb7e6e6b	-0.0038823138
173	0xbe2ce849	-0.16885485
174	0xbdac4f00	-0.084135056
175	0xbd5eaca9	-0.05436388
176	0x3dc4c25a	0.09607382
177	0x3e5615a6	0.20906696
178	0x3e22d529	0.15901627
179	0xbca8554c	-0.020548485
180	0xbdc0a6b4	-0.09406796
181	0xbd88dc9e	-0.066827044
182	0xbddcf7a7	-0.107894234
183	0xbdf0ebc5	-0.117637195
184	0x3cf77e27	0.030211521
185	0xbdee5076	-0.116364405
186	0xbc7a5dde	-0.015281169
187	0xbda24716	-0.07923715
188	0xbbbee728	-0.005825896
189	0x3c87acce	0.016561892
190	0xbcf01c77	-0.029310448
191	0xbe04eb19	-0.12980308
192	0xbe0be005	-0.13659675
193	0x3d39369a	0.045218088
194	0x3d3e5b68	0.04647389
195	0xbb1fc320	-0.0024377778
196	0xbd94259f	-0.07233738
197	0x3db4d80f	0.088302724
198	0x3e746d3a	0.23869792
199	0xbc8e2dd7	-0.017355843
200	0x3ceaf022	0.028678957
201	0x3c12aced	0.0089523615
202	0x3d97999c	0.074023455
203	0x3cbc8933	0.02301464
204	0xbe17b497	-0.14814983
205	0xbd3d9c7a	-0.046291806
206	0x3d73ac3e	0.059490435
207	0xbca0ca5f	-0.019627748
208	0xbe789a61	-0.24277641
209	0x3d8171ab	0.063205086
210	0xbdc9d418	-0.09854907
211	0x3ddeda63	0.10881498
212	0xbe273fe1	-0.16332962
213	0xbe064956	-0.13113913
214	0xbe0391bc	-0.12848562
215	0x3d043056	0.03227266
216	0x3cdfcb99	0.027318763
217	0x3dc06869	0.09394915
218	0xbd1ec28d	-0.038759757
219	0xbd84107d	-0.064484574
220	0x3d855316	0.06509988
221	0x3df8c2d4	0.121465355
222	0x3d202589	0.039098296
223	0xbde76af7	-0.11299699
224	0x3c7d9086	0.015476352
225	0x3b2d3361	0.002642833
226	0x3cacb54b	0.021082541
227	0xbd742d81	-0.05961371
228	0xbdc5a4be	-0.09650563
229	0x3dc20a47	0.094746165
230	0x3d8175ce	0.063212976
231	0xbd918fd8	-0.07107514
232	0x3d903579	0.07041449
233	0x3e117f6c	0.14208764
234	0xbd1d749b	-0.03844128
235	0xbeda6f01	-0.42662814
236	0xbdbbc367	-0.091681294
237	0x3e1b05a0	0.15138865
238	0x3dcd0885	0.100113906
239	0xbd439637	-0.047750678
240	0x3d0a443a	0.033756472
241	0xbdd6a5db	-0.10480853
242	0xbd645457	-0.055744495
243	0xbe20410c	-0.15649813
244	0x3dcece7c	0.100979775
245	0x3da7dad3	0.08196034
246	0x3cf7baee	0.030240502
247	0x3cef6766	0.029224109
248	0xbe60dda6	-0.21959552
249	0xbdf24692	-0.118298665
250	0x3c96b107	0.01839496
251	0x3d5b7130	0.05357474
252	0xbc11cc1e	-0.008898763
253	0xbda8463a	-0.0821652
254	0x3d6a5555	0.057210285
255	0xbce32946	-0.027729642

network_body._body_endoder.seq_layers.2.bias f4 [256]
0	0xbc9ecdeb	-0.019385299
1	0x3c3bd446	0.011464184
2	0xbba00e6e	-0.0048845327
3	0xbda07d83	-0.078364395
4	0x3c485801	0.012228013
5	0xbcaec3d8	-0.02133362
6	0x3d55edf2	0.052228875
7	0xb9e2e6c2	-0.00043278007
8	0x3b9ce155	0.004787604
9	0x3c823b64	0.01589746
10	0xbca9dc5a	-0.020734955
11	0xbaf71220	-0.0018850006
12	0xbcf4a00c	-0.029861473
13	0xbc47e9e8	-0.012201764
14	0xbcb9bd07	-0.022673143
15	0xbd96520f	-0.0733987
16	0xbc6c92a9	-0.014439263
17	0x3be13372	0.006872588
18	0x3cf6c68d	0.030123973
19	0x3bf42579	0.007450756
20	0xbca5705c	-0.020195179
21	0xbb2b4982	-0.0026136343
22	0x3d084a0d	0.033273745
23	0x3bbcf8d8	0.005766969
24	0x3ca16468	0.019701198
25	0x3c9af863	0.018917268
26	0x3c03179e	0.008001236
27	0xbc8b3d81	-0.0169971
28	0x3d322537	0.043492522
29	0xbc6de901	-0.0145208845
30	0xbd2bfa9b	-0.041987043
31	0xbcb4727d	-0.022027249
32	0xbc0a4704	-0.008439783
33	0x3c160e5d	0.009158698
34	0x3a9efc55	0.0012129644
35	0x3c92452e	0.017855253
36	0xbc18ea52	-0.00933321
37	0xbc544351	-0.012955503
38	0xba43171e	-0.00074421044
39	0xbad28ddb	-0.0016064005
40	0xbca3cdc5	-0.01999558
41	0x3c8209d8	0.015873834
42	0x3cc465d1	0.023974331
43	0xbc2ad1f2	-0.010426031
44	0x3c1f7e94	0.009734768
45	0xb755fdbc	-1.27548665e-05
46	0x3d0f52ef	0.0349912
47	0xbbb35adb	-0.0054734773
48	0x3b3fec2e	0.0029285061
49	0x3cb5c7b7	0.022189958
50	0xbafbb2f7	-0.0019203116
51	0xbc460fde	-0.012088744
52	0xba042ad4	-0.0005041782
53	0x3b511f11	0.0031909386
54	0x3c03c8ee	0.008043511
55	0x3cd8e9f4	0.026478745
56	0x3c9ab6e2	0.018886033
57	0x3c7fc2c3	0.0156104
58	0x3cb8a863	0.02254123
59	0x3cac3093	0.021019256
60	0x3bb53470	0.0055299327
61	0xbce3d000	-0.027809143
62	0x3bef5511	0.007303842
63	0x3d2afcfe	0.04174518
64	0xbc097179	-0.00838887
65	0xbc5e76b8	-0.013578109
66	0x3c8e72ca	0.01738872
67	0xbaa6a2bd	-0.0012713295
68	0x3b0abb1f	0.0021168662
69	0xbbaed1ca	-0.0053350674
70	0x3ca7cee6	0.020484399
71	0xba8999a3	-0.0010498058
72	0x3c8c8048	0.017151013
73	0xbc8e3c29	-0.017362671
74	0x3bc8155e	0.006106063
75	0x3d0d4b24	0.034495488
76	0x3d013752	0.0315469
77	0x3c94ee9a	0.01818018
78	0x3bc16cd7	0.0059028673
79	0xbb439a14	-0.0029846476
80	0xbbf7af06	-0.007558706
81	0xbce73c07	-0.028226865
82	0x3cf58251	0.029969366
83	0x3cbe129b	0.023202231
84	0x3bf62978	0.0075122677
85	0xbbbf6e68	-0.005842019
86	0xbbcf9b64	-0.0063356627
87	0x3cf1bcab	0.02950891
88	0x3af21a91	0.0018471052
89	0x3ba655c6	0.005076143
90	0xbd02e9cb	-0.031961244
91	0xbb0117af	-0.0019697954
92	0x3c28fdf5	0.010314454
93	0xbca4ee84	-0.020133264
94	0xbc4a6ec4	-0.01235551
95	0xbbd2cdcd	-0.006433225
96	0x3cd2612d	0.025681103
97	0x3bdf87ed	0.0068216235
98	0x3ba7ac92	0.0051170075
99	0x3cb68d87	0.022284282
100	0x3bf1e9e8	0.00738262
101	0x3bc9c0ef	0.0061570327
102	0x3bda33ee	0.0066590225
103	0xbcd7d16b	-0.026344975
104	0x3cde8302	0.027162079
105	0xbcb58a8e	-0.022160795
106	0xbdb7e1d0	-0.08978617
107	0x3d6a8797	0.057258215
108	0xbbdc237e	-0.006718098
109	0x3c3d204e	0.011543347
110	0x3b9ed3e0	0.004847035
111	0x3c34e2f3	0.011040437
112	0xbc24100d	-0.010013592
113	0xbc54ae6a	-0.012981037
114	0x3c5a1f04	0.013313059
115	0x3bacd8ea	0.0052748816
116	0xbc1e249b	-0.009652282
117	0x3c5a7eb9	0.013335877
118	0xbca99ba7	-0.020704104
119	0x3d1b0311	0.03784472
120	0xbc297fb1	-0.010345385
121	0x3a618040	0.00086021796
122	0x3d84f581	0.06492139
123	0x3b9a4cf1	0.004708879
124	0xbc370328	-0.011170186
125	0xbc7f4373	-0.015580046
126	0xbb8a3663	-0.004217909
127	0x3c013e27	0.007888353
128	0xbc64a23e	-0.013954697
129	0xbbb1a37f	-0.0054211016
130	0x3cee4314	0.02908472
131	0x3b8eb972	0.004355603
132	0xbc3e1cdc	-0.01160356
133	0xbc0fb843	-0.008771959
134	0xbad7d932	-0.0016467927
135	0x3c4b832a	0.012421409
136	0xbc751b04	-0.014960054
137	0xbb062609	-0.0020469448
138	0x3b28a9a8	0.0025735889
139	0xbbec2308	-0.0072063245
140	0x3ae6cdf4	0.0017608986
141	0xbc06fcad	-0.008238954
142	0x3c45d41a	0.012074495
143	0xbc3664cb	-0.011132429
144	0xbc72c100	-0.014816523
145	0xbb8a0e62	-0.0042131403
146	0x3cea0594	0.028567113
147	0xbc9b78f7	-0.018978579
148	0xbc80ade2	-0.015707914
149	0xbcbad588	-0.022806898
150	0xba436967	-0.0007454366
151	0xbb6fdebf	-0.0036601273
152	0x3c457a8b	0.012053142
153	0x3c06a199	0.008217239
154	0xbcc728f4	-0.02431152
155	0xbb083f63	-0.0020789735
156	0xbb685cd8	-0.003545573
157	0x3c787d47	0.015166587
158	0x3afabdf0	0.0019130092
159	0x3be828fc	0.007084964
160	0x3cc46199	0.02397232
161	0xbd284da2	-0.04108966
162	0xbbb862ed	-0.0056270272
163	0xbd0d1af1	-0.03444952
164	0xbcc38620	-0.023867667
165	0xbc683ad1	-0.014174179
166	0xbcd7a972	-0.026325915
167	0xbc674832	-0.014116334
168	0x3c66a981	0.014078499
169	0xbcaeb978	-0.021328673
170	0x3a0c5d65	0.0005354493
171	0x3d25aa53	0.040445637
172	0x3cf49a8b	0.029858848
173	0x3c53b0eb	0.0129205985
174	0xbc587a66	-0.013212776
175	0x3d1c28fd	0.038125027
176	0x3c8cc0dd	0.017181808
177	0xbb9e8dc2	-0.004838676
178	0x3cb747f9	0.022373186
179	0x3bb273c5	0.0054459297
180	0xbc613fb4	-0.013748098
181	0x3c8c36f8	0.017116055
182	0xbb90b3f8	-0.004415985
183	0xbb87f1fe	-0.0041487208
184	0xbc0aaf35	-0.008464624
185	0x3b6755a4	0.0035298849
186	0xbc28cde9	-0.010302999
187	0xbb52244b	-0.003206509
188	0xbcbb403f	-0.022857783
189	0xbccb253a	-0.024798024
190	0xbbd84840	-0.0066004097
191	0xbbbf2973	-0.0058337986
192	0x3bb20fb3	0.0054340004
193	0xbc7acce9	-0.015307643
194	0x3ccd57bb	0.025066247
195	0x3b0bf46f	0.002135541
196	0xbc8f9aa0	-0.017529786
197	0x3b94d8b4	0.0045424346
198	0xbc14ba81	-0.009077669
199	0x3ca6f5f7	0.020380957
200	0x3c5073c3	0.012722912
201	0xbbce2942	-0.0062915394
202	0xbc9325a0	-0.017962277
203	0x3c959792	0.01826075
204	0x3cba40b8	0.022735938
205	0xbc721ff2	-0.014778124
206	0x3a0d3e3e	0.0005387998
207	0x39db3818	0.00041812728
208	0x3cc3a114	0.023880519
209	0x3c2d0a04	0.01056147
210	0x3c9ea964	0.019367881
211	0xbc18ecd5	-0.009333809
212	0xbc24f20f	-0.010067477
213	0xbcbcec40	-0.023061872
214	0xbc16b89e	-0.00919929
215	0xbcf8dc37	-0.030378444
216	0x3c6d9f16	0.014503261
217	0xbc7a690f	-0.015283837
218	0x3cb230da	0.02175181
219	0xbc0cfaa5	-0.00860468
220	0xbc768cfa	-0.01504826
221	0x3c69ab42	0.014262022
222	0xbb9cb5ed	-0.0047824294
223	0x3c0b5ee4	0.00850651
224	0x3d163906	0.036675476
225	0x3cf8c204	0.030365951
226	0xbc64fc96	-0.013976237
227	0x3ccc793d	0.024960155
228	0xbc03ece1	-0.008052082
229	0x3cef65d0	0.029223353
230	0x3d36b537	0.044606414
231	0xbcb329eb	-0.021870574
232	0x3c9c53fc	0.019083016
233	0xbc7539d5	-0.0149674015
234	0x3c6d8a9b	0.014498378
235	0x3c9a8805	0.018863687
236	0x3d1ef5ca	0.03880862
237	0x3b39788c	0.0028300611
238	0xbc9295b3	-0.017893648
239	0x3d02ce2f	0.031934913
240	0x3cc27687	0.023738159
241	0x3bc0a216	0.005878697
242	0x3bb611d2	0.0055563236
243	0x3cb36187	0.02189709
244	0x3b128f94	0.0022363411
245	0xbbfb3423	-0.0076661273
246	0xb94b2620	-0.00019373791
247	0x3c849d26	0.016188215
248	0x3c7ee89f	0.015558391
249	0x3ba25de6	0.004955041
250	0x3c47a223	0.0121846525
251	0xbccfb0fc	-0.025352947
252	0xbb78c70a	-0.0037960433
253	0x3c4a07ab	0.01233093
254	0xbc567e0e	-0.013091577
255	0x3c132cc8	0.008982845

action_model._discrete_distribution.branches.0.weight f4 [3, 256]
0	0xbdd72869	-0.105057545
1	0xbe084a1d	-0.13309522
2	0xbbb4dd51	-0.005519547
3	0xbdcc39ad	-0.09971938
4	0xbcaea5e6	-0.02131934
5	0xbbec1e73	-0.0072057783
6	0x3d63ff1a	0.055663206
7	0xbcd9a7c4	-0.026569255
8	0xbbcee502	-0.006313921
9	0xbdd41c79	-0.10356993
10	0x3c9a70f8	0.018852696
11	0x3d061725	0.032736916
12	0xbe9f98e3	-0.3117133
13	0xbcd02173	-0.025406575
14	0xbe45394b	-0.19260137
15	0xbe7ef73c	-0.24899
16	0xbd76a183	-0.060212623
17	0x3d533bf3	0.051570844
18	0x3dc3ea3c	0.09566161
19	0x3e1a51d0	0.15070271
20	0x3c799200	0.015232563
21	0xbc84253d	-0.016131038
22	0x3d47fd18	0.048825353
23	0xbd292233	-0.04129238
24	0xbe4fba94	-0.20286018
25	0x3b7a7f77	0.0038222948
26	0x3d863d7b	0.06554695
27	0xbd38fccb	-0.045162957
28	0x3d5afdc2	0.05346466
29	0x3e025c26	0.12730464
30	0xbe233951	-0.15939833
31	0xbd9c4628	-0.07630569
32	0x3afabf8d	0.0019130573
33	0x3d9cd80e	0.07658397
34	0x3c9ba734	0.019000627
35	0x3dd618d7	0.104539566
36	0x3c05eb02	0.008173706
37	0xbcbc4e49	-0.022986548
38	0x3ceb7fd9	0.028747486
39	0xbbc1a825	-0.005909937
40	0x3a0f76e2	0.0005472732
41	0xbe531d03	-0.20616536
42	0x3d601e09	0.054716144
43	0xba5d347b	-0.0008438301
44	0x3e3cec09	0.18449415
45	0x3c9bd413	0.019022023
46	0x3e2e700a	0.17034927
47	0x3cbcf677	0.023066742
48	0x3c880a2f	0.016606418
49	0x3e06026e	0.13086864
50	0x3bb36774	0.005474979
51	0x3c6775e8	0.014127232
52	0x3c862f65	0.016380021
53	0x3e374a34	0.178994
54	0xbd7b1112	-0.061295576
55	0x3e226ecf	0.15862583
56	0x3cef5cf7	0.029219134
57	0x3c3e9679	0.011632555
58	0x3d023d56	0.031796776
59	0x3d361241	0.044451002
60	0xbd6b609c	-0.05746518
61	0xbe8ee544	-0.2790929
62	0x3985d328	0.0002552506
63	0x3bf787d2	0.007554033
64	0xbe1db8ca	-0.15402523
65	0x3caf8b2c	0.021428667
66	0x3cae9979	0.021313416
67	0x3d23a222	0.039949544
68	0x3dc1296b	0.09431728
69	0x3c45dc09	0.012076386
70	0xbe3ffc88	-0.18748677
71	0x3c92eb51	0.017934473
72	0x3d3e29bc	0.04642652
73	0xbcc323d5	-0.023820797
74	0x3cdaa516	0.026690047
75	0x3e483017	0.19549595
76	0xbcb90510	-0.022585422
77	0xbcc644a8	-0.02420266
78	0xbc4e807b	-0.012603874
79	0xbdb81a70	-0.089894176
80	0xbcced3fa	-0.025247563
81	0xbd28a1c5	-0.0411699
82	0xbdeeadb5	-0.11654226
83	0x3d9081eb	0.0705603
84	0x3d5f7a5b	0.054560047
85	0x3b3596e1	0.002770834
86	0xbd7ad5dd	-0.061239112
87	0x3d29f031	0.04148883
88	0x3d5e2d30	0.054242313
89	0xbe180053	-0.14843874
90	0xbcc6baa2	-0.024258915
91	0x3cbf2865	0.023334691
92	0x3c09351c	0.008374479
93	0xbd006b86	-0.031352542
94	0x3b351287	0.0027629451
95	0xbe2a696c	-0.16641778
96	0x3e136416	0.14393649
97	0x3dcae3c5	0.09906725
98	0x3c5f7061	0.013637633
99	0xbcdaad2d	-0.026693905
100	0x3dac14fc	0.0840244
101	0xbd9e2615	-0.07722107
102	0xbd32bd1e	-0.043637387
103	0x3ca41e68	0.02003403
104	0x3c640162	0.013916345
105	0xbcdcaa3d	-0.026936645
106	0xbd3c01cc	-0.04590015
107	0x3d72667f	0.05917978
108	0xbdb7100e	-0.08938609
109	0x3cbd8941	0.023136737
110	0xbe1e755a	-0.15474454
111	0xbd9c3370	-0.076269984
112	0x3b57a12f	0.003290247
113	0xbc590187	-0.013244993
114	0xbd8c0d6b	-0.06838497
115	0xbe210cb7	-0.15727507
116	0xbe0f8611	-0.14015986
117	0xbdee8802	-0.11647035
118	0x3e669725	0.22518595
119	0x3e5c8a15	0.21537049
120	0x3da5527a	0.08072372
121	0x3e2a1ff0	0.16613746
122	0xbdffc523	-0.12488773
123	0x3d19d20d	0.037553836
124	0xbd8b0077	-0.06787198
125	0xbd6c01e6	-0.057618998
126	0xbd9184b6	-0.07105391
127	0xbc15b031	-0.009136246
128	0xbe27cfde	-0.16387889
129	0x3e1cf25b	0.15326826
130	0x3e119d60	0.1422019
131	0x3dbf70ac	0.09347662
132	0xbd196438	-0.03744909
133	0xbc2b51d4	-0.010456521
134	0xbbaf3ed9	-0.005348068
135	0x3cf7635e	0.03019875
136	0x3bf2f44b	0.007414376
137	0xbcea3403	-0.028589254
138	0x3afec91c	0.0019438597
139	0xbc4a6287	-0.012352592
140	0x3d109e2c	0.035307094
141	0x3bb830b1	0.005621039
142	0xbe27aa36	-0.16373524
143	0x3bcfadfc	0.006337879
144	0xbd29fa93	-0.04149873
145	0x3d8a841b	0.06763478
146	0xbcbdba3f	-0.023160098
147	0xbc727d22	-0.014800342
148	0x3d4070be	0.04698252
149	0x3c16dcee	0.009207947
150	0x3c589055	0.013218005
151	0xbcde8190	-0.02716139
152	0x3b397335	0.0028297429
153	0x3e34aa50	0.17643094
154	0x3c51cd90	0.012805358
155	0x3cf8c9b5	0.030369619
156	0xbb7453e2	-0.0037281443
157	0x3cb6bfe0	0.02230829
158	0xbcae14f6	-0.02125023
159	0xbc70fd20	-0.014708787
160	0xbc3956cd	-0.011312199
161	0xbde35058	-0.11099309
162	0xbc794d24	-0.015216146
163	0xbda0924b	-0.07840403
164	0x3dd01535	0.10160295
165	0xbc713315	-0.014721652
166	0xbd70aab5	-0.05875655
167	0xbc8fe199	-0.017563628
168	0xbd6daea1	-0.058027867
169	0x3e5f900a	0.2183229
170	0x3bc8b4cb	0.006125068
171	0x3da8c173	0.082400225
172	0x3d4eeb6a	0.050517477
173	0x3c30dcfe	0.010794876
174	0x3cc72726	0.02431066
175	0xbdd2358c	-0.102641195
176	0x3d969ea3	0.07354476
177	0x3c9f8cca	0.019476313
178	0x3d984e38	0.07436794
179	0xbd65b1f6	-0.05607792
180	0x3b67472f	0.0035290231
181	0xbd44657f	-0.047948357
182	0xbcbc8840	-0.023014188
183	0xbd9c939c	-0.07645342
184	0xbd34b863	-0.044121157
185	0x3c3dec19	0.011591935
186	0x3da84dfc	0.08217999
187	0xbd30a20e	-0.043123297
188	0xbdb2528d	-0.087071516
189	0xba0022a8	-0.00048879767
190	0x3bbb0c63	0.0057082637
191	0x3d7f5002	0.06233216
192	0xbc59de72	-0.013297664
193	0xbd89c1c5	-0.06726412
194	0xbbcc06b3	-0.0062263845
195	0x3d73deec	0.059538767
196	0x3bdca3d3	0.0067333966
197	0xbdb24dfd	-0.08706281
198	0xbcf8ce08	-0.03037168
199	0x3d2a6909	0.041604076
200	0x3cc2fb70	0.023801535
201	0xbbe67190	-0.0070325807
202	0xbca885fa	-0.020571698
203	0x3d1fb47e	0.03899049
204	0x3ba1d1e0	0.004938349
205	0xbc884c4d	-0.016637946
206	0x3c82e7db	0.015979698
207	0x3d2bfe4c	0.041990563
208	0x3c1e610a	0.009666691
209	0x3d03ffcb	0.032226365
210	0xbe27d486	-0.16389665
211	0xbd288d22	-0.04115022
212	0xbd644d64	-0.055737868
213	0x3c9e35fc	0.019312851
214	0xbd8fa7e8	-0.070144475
215	0xbd67e690	-0.056616366
216	0xba48e834	-0.00076639955
217	0x3cbb27ba	0.022846092
218	0x3d27a6c2	0.040930517
219	0xbe76a6fc	-0.24087137
220	0xbe25f1ad	-0.16205473
221	0xbcf67b75	-0.030088166
222	0xbcea2678	-0.028582796
223	0xbddf341e	-0.108986124
224	0x3d614b92	0.05500371
225	0x3e110251	0.1416104
226	0xbd39acf2	-0.04533095
227	0x3e05d6cc	0.1307022
228	0xbbddc250	-0.0067675486
229	0x3d536607	0.051610973
230	0x3cb65d74	0.022261359
231	0x3cd781ed	0.02630707
232	0x3e1489fb	0.1450576
233	0xbb415c88	-0.0029504616
234	0x3dcb9f73	0.09942522
235	0x3cbc50fb	0.022987833
236	0xbd783d0c	-0.060605094
237	0xbe4a5859	-0.19760264
238	0xbd0b3a18	-0.03399095
239	0x3db9e62c	0.09077105
240	0x3e1d914f	0.15387462
241	0x3cd07e46	0.025450837
242	0x3cae8480	0.021303415
243	0x3d8cac15	0.068687595
244	0x3c4fb4f4	0.01267742
245	0xbc6d88cf	-0.01449795
246	0xbd8533d4	-0.06504026
247	0x3c7674b1	0.01504247
248	0x3dbc528c	0.09195432
249	0xbd7d0e8b	-0.061781447
250	0x3d7adbba	0.061244704
251	0xbcf9ecf1	-0.03050849
252	0x3cb13c51	0.021635206
253	0x3ceca70c	0.028888248
254	0x3ca33cad	0.019926393
255	0x3a994348	0.0011693025

action_model._discrete_distribution.branches.0.bias f4 [3]
0	0x3c584e16	0.013202211
1	0xbc1393a0	-0.0090073645
2	0xbda2e497	-0.07953756

action_model._discrete_distribution.branches.1.weight f4 [3, 256]
0	0x3d2819d3	0.041040253
1	0xbde87d02	-0.11351968
2	0x3d15798e	0.036492877
3	0x3d4f9af4	0.050684884
4	0xbc6a0898	-0.0142842755
5	0x3b17b6ea	0.0023149797
6	0x3e092fe0	0.13397169
7	0x3dc8cc44	0.098045856
8	0xbc955fa3	-0.01823408
9	0x3d7307c5	0.05933358
10	0x3d657774	0.056022123
11	0x3c3695cd	0.011144114
12	0x3cc9ba86	0.024625074
13	0x3c8f53dd	0.017496044
14	0xbe61739d	-0.22016759
15	0xbc164283	-0.009171131
16	0x3c1d2a5b	0.009592618
17	0xbcaa28db	-0.020771435
18	0x3ceae1ca	0.028672118
19	0x3dc46b2a	0.095907524
20	0x3d046deb	0.03233139
21	0xbd92df4a	-0.07171495
22	0xbd96ba8f	-0.07359802
23	0x3d551140	0.052018404
24	0xbd244150	-0.04010135
25	0x3d836200	0.064151764
26	0xbd80014e	-0.06250249
27	0x3dd293f5	0.10282127
28	0xbdcd47f1	-0.10023487
29	0x3bb774b9	0.005598631
30	0x3b2b63df	0.0026152057
31	0x3dc1fa48	0.094715655
32	0x3c06dd6c	0.008231502
33	0xbba737c1	-0.005103082
34	0xbca42226	-0.020035814
35	0x3e0ce8d1	0.13760687
36	0xbc433d68	-0.011916496
37	0x3d0b85a9	0.034063015
38	0xbb8fbffb	-0.0043868995
39	0x3cd1722b	0.025567135
40	0x3c32919f	0.010898977
41	0xbdd24e11	-0.10268796
42	0x3d28218e	0.041047625
43	0x3d017168	0.031602293
44	0x3de5a161	0.11212421
45	0xbda98a51	-0.08278335
46	0x3e0bc8cc	0.13650817
47	0x3ce4fac2	0.027951602
48	0x3d67d1ff	0.056596752
49	0x3cba1ae0	0.022717893
50	0x3d0bb02c	0.034103557
51	0xbc84ec43	-0.01622594
52	0xbd908391	-0.07056344
53	0xbd3066f4	-0.043066934
54	0xbbb14965	-0.0054103606
55	0x3da73b6c	0.08165631
56	0x3db1bf98	0.08679122
57	0x3d233297	0.039843168
58	0xbd484726	-0.048895977
59	0x3d0530ae	0.032517128
60	0x3de14df9	0.110012
61	0xbd756419	-0.059909914
62	0x3dbd0556	0.092295334
63	0xbb9f9cba	-0.004870978
64	0xbd131ec7	-0.035918023
65	0xbda3bb04	-0.07994655
66	0x3c5c54b5	0.01344793
67	0xbbcfc485	-0.0063405656
68	0x3c4bae10	0.012431636
69	0x3ce5acd6	0.028036516
70	0x3ca779a6	0.020443749
71	0xbd151c90	-0.036404192
72	0x3c85258f	0.01625326
73	0x3ce664e2	0.028124277
74	0xbc4d0108	-0.012512453
75	0x3e11ad84	0.14226347
76	0xbd78fd52	-0.06078846
77	0xbc7de236	-0.015495827
78	0xbd1fd30b	-0.039019626
79	0xbd63f572	-0.055653997
80	0x3d63e3e2	0.055637248
81	0x3d7a6f96	0.061141573
82	0xbe094aa5	-0.13407381
83	0x3adf3be4	0.0017031399
84	0x3d996c4e	0.074913606
85	0x3c97751a	0.018488456
86	0xbd388087	-0.04504445
87	0x3ce37ed8	0.027770445
88	0xbdf9e8c2	-0.12202598
89	0x3b96de8b	0.004604166
90	0x3cd1049d	0.025514895
91	0x3d104b53	0.035228085
92	0x3d596ab4	0.053080276
93	0x3d1bd9bf	0.038049456
94	0x3d878e27	0.0661891
95	0x3df37a02	0.118885055
96	0xbe15b06a	-0.14618078
97	0x3d8315fc	0.064006776
98	0xbd99404f	-0.07482969
99	0xbd97b8ae	-0.07408272
100	0x3d9edc81	0.077569015
101	0x3c301394	0.010746855
102	0xbda666ff	-0.08125114
103	0x3d3126c7	0.04324987
104	0xbdeb5892	-0.11491503
105	0xbab594f1	-0.0013853592
106	0x3e20c5b7	0.15700422
107	0xbe24e4b9	-0.16102876
108	0x3d030aa6	0.031992577
109	0x3bbfa45c	0.0058484506
110	0xbd71c529	-0.059025917
111	0xbba2f525	-0.004973071
112	0xbb7835b6	-0.003787381
113	0x3ccd267e	0.025042769
114	0xbc9d6dd9	-0.019217419
115	0x3ded76df	0.115949385
116	0xbdab4908	-0.08363539
117	0x3c628605	0.013825898
118	0xbe36f837	-0.17868124
119	0x3d24478d	0.0401073
120	0xbe0a91bb	-0.13532154
121	0xbd3ff974	-0.046868756
122	0xbd3dc1ba	-0.04632733
123	0x3dc35395	0.095374264
124	0x3d4638a7	0.04839387
125	0x3dd53b5d	0.10411713
126	0xbcadcecb	-0.02121677
127	0x3d82988a	0.06376751
128	0x3af45863	0.0018642064
129	0xbdf14ed2	-0.11782612
130	0x3c349d14	0.0110237785
131	0xbda107e9	-0.07862837
132	0xbe45c5a2	-0.19313672
133	0x3d1ded36	0.0385563
134	0xbdb85f91	-0.09002603
135	0x3b5a5faf	0.0033321192
136	0x3c95c41a	0.018281985
137	0xbd6e10a9	-0.058121357
138	0xbbf5eafa	-0.007504818
139	0x3d399467	0.045307543
140	0xbc246a2a	-0.010035077
141	0x3cec4a11	0.028843911
142	0x3e18bc1b	0.14915507
143	0x3d9d6550	0.076853395
144	0x3c5e7c81	0.013579489
145	0x3d2d98e0	0.04238212
146	0xbd26d02a	-0.040725864
147	0x3d42354c	0.04741411
148	0x3d69c985	0.05707695
149	0x3b189ef1	0.0023288096
150	0xbad059a9	-0.0015895861
151	0x3d5e22be	0.05423235
152	0x3c32a499	0.010903501
153	0x3c1cd3a6	0.009571945
154	0x3d2aabba	0.041667677
155	0x3db140cb	0.086549364
156	0x3cd8cb12	0.026464019
157	0x3c962573	0.018328404
158	0x3cae7615	0.02129654
159	0x3cc90232	0.02453718
160	0xbe0517f6	-0.12997422
161	0x3d8b5c5e	0.06804727
162	0x393ac9e8	0.00017813558
163	0xbe4a3f48	-0.19750702
164	0xbc1b6c62	-0.00948629
165	0x3db2858d	0.08716879
166	0xbeabff6c	-0.3359331
167	0x3c86c8da	0.016453195
168	0x3ddf5ee8	0.10906774
169	0x3d907000	0.07052612
170	0x3dc42b45	0.095785655
171	0xbd822911	-0.06355489
172	0xbd1890f0	-0.0372476
173	0xbdb6472b	-0.08900293
174	0x3d0743bf	0.033023592
175	0x3e9215d6	0.28532284
176	0xbdc6a372	-0.096991435
177	0xbc8d9cac	-0.017286621
178	0x3cd388f1	0.025822135
179	0xbe25ecb5	-0.16203578
180	0x3d06c4bf	0.032902475
181	0xbd95ad99	-0.07308502
182	0x3beb8c9f	0.007188394
183	0x3cdb13ac	0.026742779
184	0x3d6d457b	0.05792759
185	0xbc4d7db2	-0.012542175
186	0x3c675ee8	0.0141217485
187	0xbc25227e	-0.010079024
188	0x3d8c2c33	0.06844368
189	0x3d44c0df	0.0480355
190	0x3d17b81a	0.037040807
191	0x3d7fdafb	0.062464695
192	0xbba9114a	-0.0051595317
193	0x3d7c2d16	0.061566435
194	0x3d98a436	0.07453196
195	0x3d723c3d	0.05913948
196	0x3cfc2a54	0.030781902
197	0xbd9d1353	-0.076697014
198	0x3ca9c3d6	0.020723265
199	0xbc977a4b	-0.018490931
200	0x3d279571	0.040914003
201	0x3c696cea	0.014247159
202	0x3da03e87	0.07824426
203	0x3d04393f	0.032281157
204	0xbc3276b8	-0.010892563
205	0x3d237c1b	0.039913278
206	0xbd0b724d	-0.034044553
207	0xbd4b96fb	-0.049704533
208	0x3b0816ed	0.0020765618
209	0x3c5a84b0	0.013337299
210	0xbe028baf	-0.12748598
211	0xbdf4b346	-0.11948256
212	0xbe2bb219	-0.16767158
213	0xbc7892c2	-0.015171709
214	0xbdbe54c8	-0.092935145
215	0x3d895ece	0.06707536
216	0xbd26e76d	-0.04074805
217	0x3d308480	0.04309511
218	0xbd143c64	-0.036190405
219	0x3d1da06f	0.03848308
220	0xbda2a0a3	-0.07940795
221	0x3d9417fd	0.07231138
222	0xb7535754	-1.2596913e-05
223	0xbddd19b1	-0.10795916
224	0x3d6a853b	0.057255965
225	0x3e553680	0.20821571
226	0x3d012e53	0.03153832
227	0xbd997e39	-0.07494778
228	0x3cf5ba7d	0.029996151
229	0x3d70688c	0.058693454
230	0x3bf227fb	0.00739002
231	0x3d0e1974	0.034692243
232	0x3c5e4d1e	0.013568191
233	0x3c86b413	0.016443288
234	0xbd835ac0	-0.064137936
235	0xbda30f03	-0.07961848
236	0xbddbc49e	-0.10730861
237	0x3d91214f	0.07086431
238	0xbe1963cd	-0.14979477
239	0xbd1b0971	-0.0378508
240	0x3d819bdf	0.06328558
241	0x3dbd4b6c	0.09242901
242	0x3c20595b	0.009786929
243	0xbde5b026	-0.11215238
244	0x3aa72036	0.0012750688
245	0x3cc1e149	0.023666995
246	0x3c3e228e	0.011604918
247	0x3dbf0757	0.09327572
248	0x3e1757e5	0.14779623
249	0x3e257c8c	0.16160792
250	0x3c40106c	0.011722665
251	0x3ca3c9bf	0.019993661
252	0x3cc92552	0.024553929
253	0x3d02f05e	0.031967513
254	0xbc256e8a	-0.010097155
255	0xbbc3cdf0	-0.0059754774

action_model._discrete_distribution.branches.1.bias f4 [3]
0	0x3a1f3a7f	0.0006074085
1	0xbb62b271	-0.0034591223
2	0x3bbaf43c	0.0057053845
