Assets/Models/CarDriverNoBackward.onnx (onnx, 387082 bytes, 9 tensors)

discrete_action_output_shape f4 [1, 2]
0	0x40000000	2.0
1	0x40400000	3.0

network_body._body_endoder.seq_layers.0.weight f4 [256, 112]
0	0xbe21e7d4	-0.15811092
1	0xbd24ae15	-0.04020508
2	0xbe0a06b2	-0.13479117
3	0xbda3c374	-0.07996264
4	0xbcc3032a	-0.02380522
5	0xbcb62ced	-0.02223822
6	0xbe2a192a	-0.16611162
7	0x3cb2c870	0.021824092
8	0xbac88223	-0.0015297573
9	0x3d4e6779	0.050391648
10	0xbe133c90	-0.14378572
11	0x3e303b4f	0.17210124
12	0x3e3edf9b	0.18639986
13	0xbe20a6bc	-0.15688604
14	0xbe81751b	-0.25284657
15	0xbde9613a	-0.113954976
16	0xbec29790	-0.38006258
17	0x3e1fa6c4	0.1559096
18	0xbe0fd108	-0.14044583
19	0xbd610845	-0.054939527
20	0xbdb79ee6	-0.08965854
21	0x3e0e8d63	0.13921122
22	0xbc80582f	-0.01566705
23	0xbdeed4ef	-0.116617076
24	0xbcccb9a5	-0.024990866
25	0x3e51c1a9	0.20484032
26	0xbe4b407d	-0.19848819
27	0xbd9b9a7e	-0.075978264
28	0x3d494687	0.049139526
29	0x3df41cd4	0.11919561
30	0xbb57fbda	-0.0032956512
31	0xbd168c96	-0.036755167
32	0xbd2e5fa9	-0.042571697
33	0x3e3c8af4	0.18412381
34	0xbd4147b8	-0.047187537
35	0x3d92c6ff	0.07166862
36	0xbc85f5ca	-0.016352553
37	0x3dc7db2f	0.09758603
38	0xbeb34d21	-0.35019782
39	0xbdbb61ee	-0.09149538
40	0xbe5cc40a	-0.21559158
41	0x3c30d6f3	0.010793435
42	0xbe2e91af	-0.17047761
43	0xbe446351	-0.19178511
44	0xbdf14da5	-0.11782388
45	0x3e02c122	0.12768987
46	0xbd141668	-0.03615418
47	0xbe01df2d	-0.12682791
48	0xbd117c89	-0.035519157
49	0x3ce1f420	0.027582228
50	0xbdf18a98	-0.11794013
51	0x3e27f05e	0.16400287
52	0xbceaf52d	-0.028681362
53	0x3d631d6b	0.055447977
54	0x3e03976d	0.12850733
55	0xbc0bd13f	-0.008533775
56	0xbe721a23	-0.23642783
57	0xbc50d1d0	-0.012745336
58	0x3d319912	0.04335887
59	0x3da18abb	0.07887789
60	0xbe9c1f3c	-0.3049258
61	0x3e0997dd	0.13436837
62	0xbd00fe7b	-0.03149269
63	0x3d9e1389	0.0771857
64	0x3e9f070b	0.3106006
65	0xbe07ebbb	-0.13273518
66	0xbe356f40	-0.1771822
67	0x3e0dcbdf	0.13847302
68	0xbe14e605	-0.1454087
69	0x3e4b9bde	0.19883677
70	0xbca1a5cf	-0.019732384
71	0xbdcb1e6d	-0.09917913
72	0x3d898aed	0.06715951
73	0xbce9f337	-0.028558357
74	0xbde29661	-0.11063839
75	0x3d9937f9	0.07481379
76	0xbe107331	-0.14106442
77	0x3c6ce712	0.014459388
78	0xbb48ac8f	-0.003062043
79	0x3e073efd	0.13207622
80	0x3d3a1b9d	0.04543649
81	0xbdbdb8ed	-0.092637874
82	0xbd91655f	-0.07099413
83	0xbc04515d	-0.008076039
84	0x3c9d3867	0.019191934
85	0xbe2f16a9	-0.17098488
86	0xbda4799c	-0.08031008
87	0x3d956d21	0.07296205
88	0xbd9cd9c0	-0.0765872
89	0x3c60a572	0.01371132
90	0xbbfa8c20	-0.0076460987
91	0x3dd10580	0.10206127
92	0xbda3f08d	-0.08004866
93	0xbbec2e85	-0.007207694
94	0x3da55bf9	0.08074183
95	0xbdb72aee	-0.08943735
96	0x3d8bca00	0.06825638
97	0xbbc08b5a	-0.005875987
98	0xbe1685fd	-0.1469955
99	0xbdb2dc0b	-0.08733376
100	0xbb5e1001	-0.003388405
101	0x3c63d58d	0.013905895
102	0xbe23eed8	-0.1600908
103	0x3de03d84	0.10949233
104	0x3e06387f	0.13107489
105	0xbc9a3cdc	-0.018827848
106	0xbbb228c7	-0.00543699
107	0x3dc53c8d	0.0963069
108	0xbb984a88	-0.0046475567
109	0x3df9b3f1	0.12192524
110	0xbd9bed9d	-0.076136805
111	0x3ddcec0f	0.10787212
112	0xbd9d0282	-0.07666494
113	0x3bd827f3	0.006596559
114	0xbd8c06e9	-0.068372555
115	0x3dd71cbf	0.1050353
116	0x3cdf2b51	0.027242335
117	0x3e1094eb	0.14119308
118	0x3d9928e8	0.074785054
119	0x3cb4d0a2	0.02207214
120	0xbe008f6f	-0.12554716
121	0xbdb406ef	-0.08790385
122	0xbe4c11aa	-0.19928613
123	0x3d97e436	0.07416575
124	0x3e1bad42	0.15202811
125	0xbe069ec5	-0.13146503
126	0x3d4c1ffc	0.04983519
127	0x3d7b0d0d	0.061291743
128	0x3dc2ad25	0.09505681
129	0x3e1c4c81	0.15263559
130	0xbe528013	-0.20556669
131	0xbce06d82	-0.027395967
132	0x3dd21db2	0.1025957
133	0x3e1d1039	0.1533822
134	0x3e1e2aef	0.15446065
135	0xbcf6256b	-0.03004714
136	0xbe1a4eea	-0.15069166
137	0x3e4f726a	0.20258489
138	0x3e0d3a1b	0.13791697
139	0x3dda27f0	0.10652149
140	0x3da040ce	0.078248605
141	0x3dadca6e	0.08485876
142	0x3dfcedc4	0.12350038
143	0xbd192288	-0.037386447
144	0xbde1dd25	-0.11028508
145	0x3dc5e69e	0.09663127
146	0x3d89ffcc	0.067382425
147	0x3e86e4ac	0.26346338
148	0xbc33db59	-0.0109775895
149	0xbca7b5cb	-0.020472428
150	0x3e3613aa	0.17780939
151	0xbe2df567	-0.16988145
152	0xbe1d795e	-0.15378329
153	0x3dc026da	0.0938241
154	0xbbfb4610	-0.007668264
155	0x3c568fba	0.0130957905
156	0x3e94dbb9	0.29073885
157	0x3d90514c	0.07046756
158	0x3b7dd57f	0.003873199
159	0xbd8672c1	-0.06564856
160	0x3c95d56d	0.018290246
161	0xbe507da9	-0.20360436
162	0xbe0db073	-0.13836841
163	0x3d91e900	0.07124519
164	0x3d4b203d	0.04959129
165	0x3d9bf831	0.07615698
166	0xbda7ade0	-0.08187461
167	0x3d25de28	0.040495068
168	0x3e301086	0.17193803
169	0x3e301eb5	0.17199214
170	0x3d00a76c	0.031409666
171	0xbb857199	-0.00407238
172	0x3c9180f5	0.017761687
173	0x3e1c3718	0.15255392
174	0xbd3ba1ac	-0.04580848
175	0x3e3bd8a7	0.18344365
176	0x3e1259f9	0.14292134
177	0xbdad5df3	-0.08465185
178	0x3dcaf37b	0.099097215
179	0xbd824a22	-0.06361796
180	0xbe97fc65	-0.2968475
181	0x3e6d971f	0.2320218
182	0xbd69b0b7	-0.057053294
183	0x3e1f66f9	0.15566625
184	0x3df88dc1	0.121364124
185	0x3d630d3b	0.05543254
186	0x3c134e95	0.008990903
187	0xbd4d04af	-0.050053295
188	0xbe8be47e	-0.27322763
189	0x3e8b420a	0.2719882
190	0xbd29e659	-0.041479442
191	0x3d24de7c	0.04025124
192	0x3e3f07e0	0.18655348
193	0xbd0d8973	-0.03455491
194	0x3b7fcb3c	0.003903105
195	0x3cbfb0df	0.023399768
196	0xbe47d0b9	-0.19513215
197	0x3e4a475a	0.19753781
198	0xbd53494d	-0.051583577
199	0x3e65143c	0.22371
200	0xbe05788d	-0.13034268
201	0x3e631522	0.2217603
202	0x3e185139	0.14874734
203	0xbdefdfc7	-0.11712604
204	0xbe84688e	-0.2586102
205	0x3da58ed3	0.08083882
206	0x3e04e4d2	0.12977913
207	0x3dee5e77	0.116391115
208	0x3d2eb05e	0.042648666
209	0x3cd88334	0.02642975
210	0xbdcb5481	-0.09928227
211	0xbe0e95a4	-0.13924271
212	0x3e3bee98	0.18352735
213	0xbc9c8b63	-0.019109434
214	0x3d64bce3	0.0558442
215	0x3d94adbf	0.07259702
216	0xbdc45856	-0.09587161
217	0xbe998b0b	-0.29988894
218	0x3e0512fd	0.12995525
219	0x3dc2190c	0.094774336
220	0xbd7f2d52	-0.06229908
221	0xbe82ed7a	-0.25571805
222	0xbdb031fd	-0.086032845
223	0xbda9c391	-0.082892545
224	0x3e4a8ba8	0.19779837
225	0xbdf76e29	-0.12081558
226	0xbe6f0061	-0.23339988
227	0x3e1340b7	0.14380156
228	0xbe24fe00	-0.16112518
229	0xbdddc294	-0.108281285
230	0xbe12b982	-0.14328578
231	0x3d96dd13	0.07366385
232	0xbe613905	-0.21994407
233	0x3e948ad9	0.29012182
234	0xbe52fdb5	-0.20604594
235	0xbd3c56df	-0.045981284
236	0x3e098263	0.13428645
237	0xbc958799	-0.018253135
238	0xbe0ea8a6	-0.13931522
239	0x3d28759b	0.041127782
240	0xbe0c1c0f	-0.13682579
241	0x3e8718cd	0.2638611
242	0xbd5cf1b6	-0.05394145
243	0xbc35ff4c	-0.011108231
244	0xbd8aa505	-0.06769756
245	0x3e115964	0.14194256
246	0xbde3e6ee	-0.11128031
247	0xbdb2712a	-0.087129906
248	0x3e55d52c	0.208821
249	0xbe1ea1a1	-0.15491344
250	0xbe15aa43	-0.14615731
251	0x3dbd8359	0.09253568
252	0x3dc42dd1	0.09579051
253	0xbd1e7451	-0.038685147
254	0x3e11b0ed	0.14227648
255	0xbcbd9d7f	-0.023146389

network_body._body_endoder.seq_layers.0.bias f4 [256]
0	0xbd080a1d	-0.03321277
1	0x3d2d3901	0.04229069
2	0xbc2348c9	-0.009966084
3	0x3c93a378	0.018022284
4	0x3ce6da03	0.028180128
5	0x3c9e9de6	0.019362401
6	0x3d95e308	0.073186934
7	0xbcdfe157	-0.02732913
8	0x3cc8d56a	0.024515826
9	0xbe518c02	-0.20463565
10	0xbcacab3e	-0.021077748
11	0x3c749227	0.014927424
12	0x3d5cb805	0.053886432
13	0xbad1775c	-0.0015981006
14	0x3d155098	0.036453813
15	0x3c11d589	0.008901008
16	0x3cf1df3a	0.029525388
17	0xbc7382b8	-0.014862709
18	0x3dc0e33b	0.09418341
19	0x3b69fd53	0.0035703972
20	0x3d52c36a	0.051455893
21	0xbd7877b4	-0.060661033
22	0x3c419b9e	0.011816887
23	0xbc2d253a	-0.010567958
24	0xbe47607d	-0.19470401
25	0xbb7faa35	-0.0039011363
26	0x3ce1a02b	0.027542194
27	0xbc48c889	-0.012254843
28	0x3d73cef8	0.059523553
29	0x3c95f25f	0.018304048
30	0x3dadea84	0.08491996
31	0x3c2661fd	0.010155198
32	0xbb7c0c83	-0.0038459606
33	0xbdef3923	-0.1168082
34	0xbd145a46	-0.036218904
35	0x3d851c1f	0.06499504
36	0x3aefc0d3	0.0018291719
37	0x3d1285ea	0.03577224
38	0x3d0c07c8	0.03418711
39	0x3cbb2cc6	0.022848498
40	0x3dc15480	0.09439945
41	0xbd01353e	-0.031544916
42	0xbd0ecad8	-0.034861416
43	0xbb844371	-0.00403636
44	0xbc33c304	-0.010971788
45	0x3d3ea395	0.046542723
46	0xbe6645f3	-0.22487621
47	0xbd93f3c6	-0.072242305
48	0xbd21bfeb	-0.039489668
49	0x3d63ddd5	0.055631477
50	0x3d0f12c2	0.03493
51	0xbd0a1b43	-0.033717405
52	0x3d66637a	0.056247212
53	0x3c83ced3	0.016089832
54	0xbd029bb9	-0.03188679
55	0x3d2cf0c4	0.0422218
56	0xbcd0accc	-0.025473021
57	0x3d8f0a0e	0.0698434
58	0x3c9fe8af	0.019520132
59	0x3afeacf9	0.0019430212
60	0xbc956339	-0.01823579
61	0x3cc1ed8f	0.023672847
62	0x3d08a610	0.033361495
63	0xbccab317	-0.0247436
64	0x3d71801f	0.058960076
65	0xbd1dfb6f	-0.038569864
66	0xbc8474d3	-0.016168987
67	0xbc3f9f3d	-0.01169568
68	0xbca28e43	-0.019843226
69	0x3cc209f6	0.02368639
70	0xbc053395	-0.008129974
71	0xbd056dc1	-0.032575373
72	0x3c640c57	0.013918958
73	0x3d1828cd	0.037148286
74	0xbc1a4d98	-0.009417914
75	0x3c09a412	0.008400934
76	0x3d2af329	0.0417358
77	0x3c58c75c	0.013231125
78	0xba74dd8c	-0.00093408744
79	0xbcb0e612	-0.021594081
80	0xbcacdc95	-0.021101275
81	0x3d8371a0	0.064181566
82	0x3d8bfe04	0.06835559
83	0x3b40d39d	0.0029423006
84	0x3cc82802	0.02443314
85	0x3c0fea65	0.008783911
86	0xbc3a7c89	-0.011382231
87	0xbc345b58	-0.011008106
88	0x3c98820d	0.0186167
89	0xbcf97b44	-0.030454285
90	0xbd0f6f69	-0.03501836
91	0xbb76dcad	-0.0037668154
92	0xbcac1912	-0.021008048
93	0xbbd047af	-0.0063562016
94	0x3c73986b	0.014867882
95	0xbc8b86f5	-0.017032126
96	0x3d3c8c29	0.046032105
97	0x3d522f07	0.05131438
98	0xbd4045a5	-0.04694142
99	0x3cc17ed6	0.02362005
100	0x3d0e46da	0.034735538
101	0xbc0ffd65	-0.008788441
102	0x3d98364d	0.07432232
103	0xbc58cc81	-0.013232351
104	0xbbb60ad4	-0.00555549
105	0x3da5ed95	0.08101956
106	0x3d2f99cd	0.042871285
107	0xbc2bc1a1	-0.010483176
108	0x3cbda2cf	0.023148922
109	0x3d7ac4a4	0.061222687
110	0x3d283843	0.04106928
111	0x3d6c71b0	0.05772561
112	0x3d515777	0.051108804
113	0x3d2c9b6c	0.04214041
114	0x3cfdefce	0.030998137
115	0x3cc45b4a	0.023969311
116	0x3d6466e8	0.0557622
117	0x3cb01ea8	0.021498993
118	0xbc3fbde3	-0.011702987
119	0xbad5bf27	-0.0016307578
120	0x3c884f4e	0.016639378
121	0x3d08fdfb	0.03344534
122	0xbc858ceb	-0.016302546
123	0xbc70aa9b	-0.014689113
124	0x3d48f94d	0.049065877
125	0x3c752ad1	0.0149638215
126	0xba4cea62	-0.0007816908
127	0xbc9226cb	-0.017840764
128	0xbd2b6e7d	-0.041853417
129	0xbc50db84	-0.012747649
130	0x3c25fde9	0.010131338
131	0xbc48c3b9	-0.012253695
132	0x3db27dfb	0.08715435
133	0x3d0a881b	0.033821207
134	0xbc42c2a1	-0.011887223
135	0xbcc0ff5d	-0.023559267
136	0xbe039673	-0.1285036
137	0x3cea1363	0.028573697
138	0x3b7f41db	0.0038949165
139	0xbc282607	-0.010262973
140	0x3bac26e6	0.0052536605
141	0x3cd5a8ac	0.026081406
142	0xbdad6fbd	-0.08468578
143	0xbd047142	-0.032334574
144	0x3cbcf2c7	0.023064984
145	0x3bc6ed0e	0.0060707396
146	0xbcb32122	-0.021866385
147	0x3ccf1c38	0.02528201
148	0xbd3729cf	-0.044717606
149	0x3aab3a67	0.001306367
150	0xbc0f172c	-0.008733552
151	0x3d36a02e	0.044586353
152	0xbb3c0e5e	-0.0028695087
153	0xbdc22ff1	-0.094818
154	0xbda8d6d3	-0.082440995
155	0x3b146c84	0.0022647688
156	0xbd066b00	-0.032816887
157	0xbbf720ef	-0.007541768
158	0xbdc35b37	-0.09538882
159	0x3d9ed2e7	0.0775507
160	0xbb725f1e	-0.0036982964
161	0x3d9e69e9	0.077350445
162	0x3d0625a4	0.03275074
163	0xbc6aa61e	-0.014321832
164	0xbb046283	-0.002020032
165	0xbd187270	-0.03721851
166	0x3d3d08c4	0.046150938
167	0xbe4035b2	-0.18770483
168	0x3c81d2ac	0.015847526
169	0xbc60c045	-0.013717716
170	0x3c5ca142	0.013466181
171	0x3c9d7d51	0.019224795
172	0x3c3fd9df	0.011709659
173	0x3d326da6	0.0435616
174	0x3b99821b	0.0046846992
175	0x3ce771ac	0.028252445
176	0x3d3cbc32	0.046077915
177	0x3d0d2c2b	0.03446595
178	0xbbe9b4a4	-0.0071321297
179	0xbd5bb1a0	-0.053636193
180	0xbbe3def0	-0.0069540665
181	0x3cb87213	0.022515332
182	0x3db7d9c2	0.08977081
183	0xbd4315dd	-0.047628272
184	0x3cbf5c0c	0.023359321
185	0xbc8ee37e	-0.017442461
186	0x3c2e4377	0.010636202
187	0x3c8587fb	0.016300192
188	0xbd23182b	-0.03981797
189	0x3d7a9810	0.061180174
190	0x3c76b803	0.01505852
191	0x3c8139c4	0.015774615
192	0x3c7179a0	0.01473847
193	0xbc83015b	-0.015991857
194	0xbccae011	-0.024765046
195	0x3cae0322	0.021241728
196	0xbdf51f27	-0.119688325
197	0x3b2cdcc3	0.0026376701
198	0x3d72b3ea	0.05925361
199	0x3c14903d	0.009067592
200	0x3cf6504b	0.030067584
201	0xbe1e14c3	-0.15437607
202	0xbc96bc76	-0.018400412
203	0x3d130540	0.03589368
204	0x3ca99217	0.020699544
205	0x3d02bbf8	0.031917542
206	0x3bf4152f	0.0074488143
207	0x3c36c593	0.011155504
208	0xbce70637	-0.028201206
209	0x3dbd1e36	0.09234278
210	0x3d47bbc7	0.048763063
211	0x3d912801	0.07087708
212	0xbcff0603	-0.031130796
213	0xbb49ce69	-0.0030793196
214	0xbd0f1730	-0.034934223
215	0xbbd255ab	-0.006418904
216	0xbbd1290d	-0.0063830675
217	0x3d8661c7	0.06561618
218	0x3cca82dd	0.024720604
219	0xbc204659	-0.009782397
220	0x3ac6d3be	0.0015169305
221	0x3ce0cbf4	0.027441002
222	0x3c6d266f	0.014474495
223	0xba9d6ec2	-0.0012011158
224	0xbd5bf812	-0.053703375
225	0xbdcd1315	-0.10013405
226	0x3d1ef287	0.03880551
227	0x3d22313d	0.03959774
228	0x3d4fe8e2	0.050759204
229	0x3c2b0705	0.010438685
230	0x3c181815	0.009283085
231	0xbc8514e6	-0.016245317
232	0xbc542d23	-0.012950215
233	0xbc022c69	-0.0079451585
234	0xbc4ee100	-0.012626886
235	0xbcdc0081	-0.026855709
236	0x3ca0dcc5	0.019636521
237	0xbbfd231f	-0.007725134
238	0x3c5fce50	0.013660029
239	0x3d1d0c9b	0.0383421
240	0x3cefc6a3	0.029269522
241	0x3d201fe3	0.03909291
242	0x3d07da0f	0.03316694
243	0xbce86199	-0.02836685
244	0x3ce9c887	0.028538002
245	0xbc1e223c	-0.009651717
246	0x3d9e314c	0.077242464
247	0x3c98a446	0.01863302
248	0x3d87c917	0.06630152
249	0x3c9097c6	0.017650496
250	0x3d817336	0.06320803
251	0x3cf3477f	0.029697178
252	0xbc8806e9	-0.016604858
253	0x3cc028d2	0.023456965
254	0xbc4205dd	-0.011842218
255	0x3cab22d4	0.02089063

network_body._body_endoder.seq_layers.2.weight f4 [256, 256]
0	0x3d499b12	0.049220152
1	0x3d271c3d	0.040798414
2	0xbc9e7a76	-0.019345503
3	0x3e24da07	0.16098796
4	0x3da63b00	0.08116722
5	0x3d722fda	0.059127666
6	0xbd121e71	-0.035673562
7	0xbd7c371c	-0.061575994
8	0xbe3ad6d9	-0.1824602
9	0xbe0d9fad	-0.13830443
10	0xbde4bb07	-0.11168485
11	0xbd90d6c8	-0.07072216
12	0xbd2b493e	-0.041817896
13	0x3ced567d	0.028971905
14	0x3e289fd4	0.1646722
15	0xbdcbe7f2	-0.099563494
16	0x3d4e6903	0.050393116
17	0x3d9c5d74	0.07635012
18	0xbd287b8b	-0.041133445
19	0xbd926d09	-0.07149703
20	0x3d883c31	0.066521056
21	0xbe30b7a3	-0.17257552
22	0xbe048d80	-0.12944603
23	0xbcc0e744	-0.023547776
24	0x3d9ee88e	0.077592
25	0xbe26e219	-0.16297187
26	0xbc0b4cba	-0.00850218
27	0xbdea5625	-0.11442212
28	0x3dd6faef	0.104970805
29	0xbe367ace	-0.17820284
30	0xbd3522ec	-0.044222757
31	0xbd6f8865	-0.058479685
32	0xbc88e8a5	-0.016712496
33	0x3db7a370	0.0896672
34	0x3e27c31c	0.16383022
35	0xbd91d7f8	-0.07121271
36	0xbe277a0f	-0.16355155
37	0xbe1ebe0a	-0.15502182
38	0x3cb3d4d0	0.021952063
39	0x3db430ec	0.087983936
40	0xbd1cc28e	-0.03827148
41	0xbdc19fa4	-0.09454277
42	0xbe40f8b3	-0.18844871
43	0x3d7300fb	0.059327107
44	0x3da1ae37	0.07894557
45	0xbd4e0924	-0.050301686
46	0xbd1c22f0	-0.038119256
47	0xbe6853ac	-0.22688168
48	0xbd908d9b	-0.07058259
49	0x3c771b27	0.015082157
50	0xbe0af86e	-0.13571331
51	0xbd0a3231	-0.033739273
52	0xbd6a43ec	-0.05719368
53	0x3ca87841	0.020565154
54	0xbbe75f05	-0.0070608878
55	0xbd713d4c	-0.058896348
56	0xbd56e303	-0.05246259
57	0x3c7a4606	0.015275484
58	0x3e05444d	0.13014336
59	0xbe336b79	-0.17521466
60	0xbd0f0e80	-0.034925938
61	0x3dd68425	0.10474423
62	0x3db3894a	0.0876642
63	0x3dfd7c1a	0.12377186
64	0xbce74a9d	-0.02823382
65	0xbd0110ee	-0.031510286
66	0xbd262938	-0.040566653
67	0xbc9f8884	-0.019474275
68	0xbe44e24d	-0.19226952
69	0x3d766bd3	0.060161423
70	0xbd456980	-0.048196316
71	0xbe2832bd	-0.16425605
72	0x3d48cf85	0.04902603
73	0xbe85ebb8	-0.26156402
74	0x3dfc38ae	0.12315498
75	0xbdabeb65	-0.08394507
76	0xbe232c2a	-0.15934816
77	0xbd83bd95	-0.06432644
78	0xbddee6f7	-0.10883897
79	0x3e3b207a	0.18274108
80	0x3e9a0a01	0.30085757
81	0xbe8ec537	-0.27884838
82	0xbc0f188b	-0.008733879
83	0xbe2225f8	-0.15834796
84	0x3e1f4b85	0.15556152
85	0xbe40e445	-0.18837078
86	0xbe032cf7	-0.12810121
87	0xbd85120b	-0.06497582
88	0x3b574b68	0.0032851342
89	0xbe4d7de9	-0.20067562
90	0x3b0ab871	0.0021167065
91	0xbdfd22ac	-0.12360129
92	0xbe97811f	-0.295907
93	0xbca5b0c0	-0.020225883
94	0x3abbb56f	0.0014321039
95	0xbe30b567	-0.172567
96	0xbcd1a618	-0.025591895
97	0x3de16a1d	0.110065676
98	0x3c32eb7d	0.010920403
99	0xbe202c6d	-0.15641947
100	0x3db00e84	0.08596519
101	0x3d324c73	0.04352994
102	0x3e0fe9fb	0.140541
103	0x3db05560	0.08610034
104	0x3db1b30d	0.08676729
105	0x3d50cfa7	0.050979283
106	0xbd20850d	-0.039189387
107	0xbe3ddb40	-0.18540668
108	0xbdf86332	-0.12128295
109	0xbcd71480	-0.026254892
110	0xbe2b85cd	-0.1675026
111	0xbda878a6	-0.08226137
112	0x3d3aaa77	0.045572724
113	0xbd60de77	-0.05489966
114	0xbb416816	-0.0029511503
115	0x3df8bb24	0.12145069
116	0xbe7e9d0f	-0.248646
117	0xbe2e3583	-0.170126
118	0xbdb0b15c	-0.086275786
119	0x3c24d2ba	0.010060007
120	0xbe440728	-0.19143355
121	0xbdb58174	-0.08862582
122	0x3e24463c	0.16042417
123	0x3e0b531e	0.13605925
124	0x3d663751	0.056205098
125	0x3dbb316a	0.09140284
126	0xbdc6a0f3	-0.096986674
127	0xbe24f876	-0.16110405
128	0xbe8cd1fa	-0.2750395
129	0xbe406925	-0.1879011
130	0xbd07d5a2	-0.03316272
131	0xbe5ca9b7	-0.21549116
132	0x3e0f264c	0.13979453
133	0xbdf660f8	-0.12030214
134	0xbdb68520	-0.0891211
135	0x3cf42740	0.029803872
136	0x3c1a583e	0.009420453
137	0xbd8163cd	-0.063178636
138	0xbe3888ca	-0.18020931
139	0x3cc80412	0.024416003
140	0xbdf4e5b3	-0.11957874
141	0xbd557c73	-0.052120637
142	0xbe15bdb2	-0.14623144
143	0xbd75b417	-0.0599862
144	0xbe003312	-0.12519482
145	0xbd91800e	-0.071045026
146	0xbe5650c5	-0.20929249
147	0xbd053966	-0.032525443
148	0xbdfa9d07	-0.12236982
149	0xbdc377a4	-0.09544304
150	0xbd4b7ef0	-0.049681604
151	0xbc8cf653	-0.0172073
152	0xbc9bcbb4	-0.019018032
153	0xbd9e3894	-0.07725635
154	0xbd3fb3b2	-0.04680223
155	0x3e5a3cce	0.21312258
156	0xbdbc91fb	-0.09207531
157	0xbdc02054	-0.09381166
158	0x3d3b9fae	0.04580658
159	0xbcf8e4fa	-0.030382622
160	0x3e1a75c4	0.15083987
161	0xbe03deb8	-0.12877929
162	0xbdcb18ea	-0.09916861
163	0x3e19c3a1	0.15016033
164	0x3e1b1604	0.15145117
165	0xbdd76192	-0.10516657
166	0xbd62fe8e	-0.055418544
167	0xbe1eda10	-0.15512872
168	0x3d61af59	0.055098865
169	0x3ca182ce	0.019715693
170	0xbe0918f8	-0.13388431
171	0xbd30dbc9	-0.043178353
172	0x3def5a76	0.11687176
173	0x3d36589f	0.04451811
174	0xbbd81d50	-0.006595291
175	0x3e30f29b	0.17280047
176	0xbe042ce3	-0.12907748
177	0x3e8fce57	0.28087112
178	0xbca7b2d9	-0.020471023
179	0x3e5ebec1	0.21752454
180	0x3e424d9c	0.18974918
181	0x3d9a1c6c	0.07524952
182	0xbdb255fa	-0.08707805
183	0x3b25b11a	0.0025282563
184	0x3e429c95	0.19005044
185	0x3dbd328c	0.09238157
186	0xbdf450bb	-0.119294606
187	0xbea123fb	-0.31472763
188	0xbd1fb1ee	-0.038988046
189	0x3d4aea21	0.04953969
190	0x3e3e2710	0.18569589
191	0xbe1f5c64	-0.15562588
192	0xbdb345f8	-0.0875358
193	0xbde250cc	-0.11050567
194	0xbdf6a3c8	-0.120429575
195	0x3d8dd1b9	0.06924767
196	0x3d14eeb4	0.036360458
197	0x3e118291	0.14209963
198	0x3d96618b	0.073428236
199	0xbe0d1c22	-0.13780263
200	0xbd5141b8	-0.051088065
201	0x3daed955	0.085375465
202	0xbe63e513	-0.22255354
203	0x3d289e09	0.04116634
204	0xbe20245f	-0.15638874
205	0xbd1a7859	-0.03771243
206	0xbe5fe516	-0.21864733
207	0xb99f3bf0	-0.000303715
208	0x3e39c35e	0.18140933
209	0x3e101762	0.1407142
210	0xbdef1560	-0.11673999
211	0x3c784c97	0.015154979
212	0xbd8bd035	-0.06826822
213	0x3dbff28f	0.09372436
214	0xbd919483	-0.071084045
215	0x3e92f7f1	0.2870479
216	0x3dbae181	0.09125043
217	0x3c352030	0.011055037
218	0x3e0aac63	0.13542323
219	0xbd93183f	-0.07182359
220	0x3dcaae53	0.09896531
221	0x3d2a9e51	0.04165489
222	0x3d0f36d3	0.034964394
223	0x3d8749e9	0.06605894
224	0xbc86d101	-0.016457083
225	0xbbe264b0	-0.0069089755
226	0x3dfa08dd	0.12208722
227	0x3b31b911	0.0027118365
228	0x3b83858b	0.0040137223
229	0xbe1f2d80	-0.155447
230	0xbd8cb1ea	-0.06869872
231	0x3cc2c81a	0.023777056
232	0x3df21b54	0.11821619
233	0xbcb498bc	-0.022045486
234	0xbe2179a5	-0.1576906
235	0xbb39303b	-0.0028257507
236	0xbdfa51e8	-0.122226536
237	0x3e304574	0.17213994
238	0x3dfd2a85	0.123616256
239	0xbe81cea4	-0.25352967
240	0x3da64796	0.08119123
241	0xbdb5c80e	-0.08876048
242	0x3da24b50	0.07924521
243	0x3d9c9aa7	0.07646685
244	0xbd19e38c	-0.03757052
245	0xbd1b2285	-0.037874717
246	0xbdf146a9	-0.117810555
247	0xbe333fbd	-0.17504783
248	0xbee2f509	-0.44327572
249	0xbcb19196	-0.021675866
250	0x3dee25ef	0.11628329
251	0xbdf8de68	-0.121517956
252	0xbd4c91b3	-0.049943637
253	0x3d0caaa3	0.03434242
254	0xbd6a6078	-0.057220906
255	0x3d8a5c6d	0.0675591

network_body._body_endoder.seq_layers.2.bias f4 [256]
0	0xbdb6b364	-0.08920935
1	0xbe2fe8c9	-0.17178644
2	0xba4be2ca	-0.00077776297
3	0xbdec5985	-0.11540512
4	0xbd5a53d1	-0.05330259
5	0xbe0f6eea	-0.14007154
6	0xbcb19c49	-0.021680968
7	0xbdfbda8f	-0.12297546
8	0xbd719b0c	-0.058985755
9	0xbdefff1e	-0.117185816
10	0xbd4d0aa7	-0.050058987
11	0xbda9323a	-0.08261533
12	0xbded592f	-0.11589276
13	0xbe07b48b	-0.13252465
14	0xbce32c86	-0.027731191
15	0xbd508f08	-0.050917655
16	0xbde45bbb	-0.11150309
17	0x3b5775d5	0.003287663
18	0x3d1394a6	0.036030434
19	0xbd36f722	-0.044669278
20	0xbdd01ff1	-0.10162342
21	0xbd72f82d	-0.05931871
22	0xbddc057a	-0.10743232
23	0xbd9b99fe	-0.07597731
24	0xbe3ace68	-0.182428
25	0xbe62f6f4	-0.22164518
26	0x3c6342f3	0.013870942
27	0xbd43072f	-0.047614273
28	0xbd68e0c2	-0.05685497
29	0xbd964586	-0.07337479
30	0xbbee7b73	-0.0072779
31	0xbd624cb1	-0.05524892
32	0xbdde1e28	-0.108455956
33	0xbc9c7d8a	-0.01910283
34	0x3dc8b302	0.09799768
35	0xbe036298	-0.1283058
36	0xbe2f313c	-0.17108625
37	0xbd1df20b	-0.03856091
38	0xba876f35	-0.0010332825
39	0xbd086eb9	-0.03330872
40	0xbd0a9f67	-0.033843424
41	0xbd698953	-0.05701573
42	0xbe0a9296	-0.1353248
43	0xbda321aa	-0.07965405
44	0xbda0c998	-0.07850951
45	0xbda0a821	-0.07844568
46	0xbdb948d5	-0.09047095
47	0xbe023405	-0.12715156
48	0xbdef0f76	-0.11672871
49	0xbd9d66e8	-0.076856434
50	0xbdb670c3	-0.08908226
51	0xbdd0fb5a	-0.102041915
52	0xbdf894b3	-0.12137737
53	0xbdea54f7	-0.11441987
54	0x3c792990	0.015207663
55	0xbd8aa6b5	-0.06770078
56	0xbd615c2b	-0.05501954
57	0xbd66be98	-0.056334108
58	0xbe1bacdd	-0.15202661
59	0xbe137ee2	-0.1440387
60	0xbddabb15	-0.10680214
61	0xbde5a0f5	-0.11212341
62	0xbdc4ae50	-0.0960356
63	0xbd641251	-0.05568153
64	0xbd3be990	-0.04587704
65	0xbdae5286	-0.08511834
66	0xbdbb3280	-0.091404915
67	0xbd556073	-0.052093934
68	0xbd6ae483	-0.057346832
69	0xbd4d3565	-0.05009975
70	0xbd92568c	-0.07145414
71	0xbe54ae3b	-0.20769589
72	0xbd6dbf03	-0.05804349
73	0xbdd7df99	-0.10540695
74	0xbe35cfcc	-0.1775505
75	0xbe3384d0	-0.17531133
76	0xbd498ef8	-0.04920861
77	0xbd1f8fa9	-0.038955364
78	0xbe11137b	-0.14167587
79	0xbe417c4b	-0.1889507
80	0xbd43b235	-0.047777373
81	0xbd4dcfb8	-0.050246924
82	0xbe1f782e	-0.15573189
83	0xbd6a2248	-0.0571616
84	0xbc04cc6a	-0.008105377
85	0x3dd0c09e	0.10192989
86	0xbe3a4f93	-0.18194418
87	0xbe566e52	-0.20940521
88	0xbdeb6181	-0.11493207
89	0xbd75a0d8	-0.059967846
90	0xbdef66de	-0.11689542
91	0xbe2719d0	-0.1631844
92	0xbe4900db	-0.19629233
93	0xbdc43fa9	-0.09582455
94	0xbd41e6a7	-0.047339108
95	0xbd81cee8	-0.06338292
96	0xbc8208f5	-0.015873412
97	0xbd2c1282	-0.042009838
98	0xbdbeda64	-0.093189985
99	0xbdbcb0e7	-0.09213429
100	0xbe0bed9a	-0.13664857
101	0xbdb67796	-0.08909528
102	0xbd939989	-0.07207019
103	0xbcf16ba9	-0.029470282
104	0x3c738519	0.014863276
105	0xbdf849f6	-0.12123482
106	0xbdef1abc	-0.11675021
107	0xbd86946f	-0.0657128
108	0xbdd0d624	-0.10197094
109	0xbd71e5c7	-0.059057023
110	0xbe3ce01c	-0.18444866
111	0xbdd43cf6	-0.1036319
112	0xbdb4dd7b	-0.088313065
113	0x3ca7a633	0.020464992
114	0xbc56e6a2	-0.013116511
115	0xbd4cc0f3	-0.0499887
116	0xbd629fde	-0.055328242
117	0x3d0c70d0	0.034287274
118	0xbd6fd4c8	-0.058552533
119	0xbd3e9114	-0.046525076
120	0x3c400a1b	0.011721159
121	0xbd5d6b6a	-0.054057516
122	0xbc89069f	-0.01672679
123	0xbcc280c9	-0.02374305
124	0xbcac55fb	-0.021037092
125	0x3cc2dfd5	0.023788372
126	0xbd80f5ac	-0.06296858
127	0xbdd7480f	-0.10511791
128	0xbe0ff102	-0.14056781
129	0xbbc0c2b8	-0.0058825873
130	0x3e0be23f	0.13660525
131	0xbdab659a	-0.08368988
132	0xbd837b7c	-0.06420037
133	0xbdcea26e	-0.10089575
134	0xbdf85478	-0.12125486
135	0xbd58b356	-0.052905403
136	0xbdfa4574	-0.122202784
137	0xbdd2cb07	-0.10292631
138	0xbe0c430a	-0.13697448
139	0xbd95dab7	-0.07317107
140	0xbe1e3fb8	-0.15453994
141	0xbd2f32fb	-0.04277323
142	0xbd36b547	-0.044606473
143	0x3d1f02e4	0.038821116
144	0xbeab5c05	-0.33468643
145	0xbe39caa7	-0.18143712
146	0xbdc6d8f2	-0.09709348
147	0xbd170c5b	-0.036877017
148	0xbdef9a77	-0.11699384
149	0xbda9a760	-0.082838774
150	0xbe313c2f	-0.17308114
151	0xbd961d20	-0.07329774
152	0xbe089265	-0.13337095
153	0xbe0a37bf	-0.13497828
154	0xbe22a204	-0.15882117
155	0x3d59032b	0.052981537
156	0xbde94fd5	-0.1139218
157	0xbda69f82	-0.081358925
158	0xbda63336	-0.081152365
159	0xbc7f142b	-0.015568773
160	0xbd8520f6	-0.065004274
161	0xbd65c882	-0.056099422
162	0xbdbe6833	-0.09297218
163	0xbe6e42a5	-0.2326761
164	0xbdf6249d	-0.12018702
165	0xbdbb91fb	-0.09158703
166	0xbe28cf5d	-0.16485353
167	0xbe2cbefe	-0.16869733
168	0xbd1cba15	-0.0382634
169	0xbd927ca9	-0.07152683
170	0xbd1cd800	-0.03829193
171	0xbdfc8270	-0.123295665
172	0xbd29ea85	-0.04148342
173	0xbd417c79	-0.047237847
174	0xbe205be7	-0.15660058
175	0xbd957794	-0.07298198
176	0x3c3ac385	0.011399155
177	0x3cfe1bd7	0.031019134
178	0xbd320b0a	-0.04346756
179	0xbd43ccfb	-0.047802906
180	0xbda84078	-0.082154214
181	0xbd9af7de	-0.07566808
182	0xbdfa3e6e	-0.12218939
183	0xbd5c8c14	-0.053844526
184	0xbe4fdaa3	-0.20298247
185	0xbdcb0d78	-0.09914678
186	0x3c0fb7f1	0.008771882
187	0xbdee5935	-0.11638109
188	0xbc870fd5	-0.016487041
189	0xbdb1a255	-0.086735405
190	0xbca5d70d	-0.020244146
191	0xbd88423f	-0.066532604
192	0xbc126a2f	-0.008936449
193	0xbb57aebf	-0.0032910553
194	0xbd4700f5	-0.048584897
195	0x3b5f357c	0.0034058979
196	0xbe2cfe26	-0.16893825
197	0xbdad9fc1	-0.08477736
198	0xbd1120ac	-0.03543155
199	0xbe170423	-0.14747672
200	0xbd91fae0	-0.07127929
201	0xbd1e2400	-0.03860855
202	0xbd88a9eb	-0.06673034
203	0xbd28c547	-0.041203763
204	0xbdc53a8c	-0.096303076
205	0xbdcab033	-0.098968886
206	0xbdac457c	-0.084116906
207	0xbdc1685e	-0.094437346
208	0xbbd43c72	-0.006476932
209	0xbd0b52ce	-0.034014516
210	0xbd48cdfc	-0.049024567
211	0xbc4b5b29	-0.012411871
212	0x3ca436c8	0.020045653
213	0x3c74b266	0.014935112
214	0xbd8094bd	-0.062783696
215	0xbd2b4e1a	-0.04182253
216	0x3d0e977c	0.034812436
217	0xbe26e798	-0.16299284
218	0xbd94ebbe	-0.07271527
219	0xbd00ef3a	-0.031478144
220	0xbcf083a7	-0.029359652
221	0xbe0b750e	-0.13618872
222	0xbd6a9d66	-0.057279013
223	0xbe10f9f1	-0.14157845
224	0xbd278c6d	-0.040905405
225	0x3cdb7385	0.026788482
226	0xbdb42bbf	-0.087974064
227	0xbdc3dcb0	-0.09563577
228	0xbdc74325	-0.09729604
229	0xbdcc1a50	-0.09965956
230	0xbdd9f3c9	-0.106422015
231	0xbda9b832	-0.082870856
232	0x3d099caf	0.03359669
233	0xbde993b3	-0.114051245
234	0xbd250323	-0.040286195
235	0xbdd90e90	-0.10598481
236	0xbd4edf09	-0.05050567
237	0xbd52826c	-0.05139391
238	0xbd50e21b	-0.05099688
239	0xbe57917d	-0.21051593
240	0xbda2b0ba	-0.07943864
241	0x3c589ecf	0.013221457
242	0xbe1ffb6d	-0.15623255
243	0xbdf2a39f	-0.118476145
244	0xbe4fc45a	-0.20289746
245	0xbd61ff88	-0.055175334
246	0xbd4a869b	-0.049444776
247	0xbdf47735	-0.119367994
248	0xbcaf6a42	-0.021412972
249	0xbd7182b0	-0.058962524
250	0xbd19e47a	-0.037571408
251	0xbd99e207	-0.075138144
252	0xbd77c150	-0.06048709
253	0xbd56de5c	-0.052458152
254	0xbd889bce	-0.066703424
255	0xbe07dd4f	-0.13268016

action_model._discrete_distribution.branches.0.weight f4 [2, 256]
0	0xbd3c5c7b	-0.045986634
1	0xbd8a23e4	-0.06745127
2	0x3e4159a0	0.18881845
3	0x3dfcb1d8	0.123386085
4	0x3d8d0025	0.06884793
5	0xbd879ced	-0.06621728
6	0xbe5ac648	-0.21364701
7	0xbb816dbd	-0.0039498494
8	0xbda7fea8	-0.08202869
9	0xbc96230d	-0.01832726
10	0xbd860c6c	-0.06545338
11	0x3d1110d0	0.035416424
12	0xbad04d4a	-0.0015892175
13	0xbdae11d9	-0.08499498
14	0x3db5f893	0.088853024
15	0xbe0b66d8	-0.1361345
16	0xbdd34f06	-0.10317807
17	0xbbba471a	-0.0056847455
18	0x3d4f9028	0.050674587
19	0xbe0dd675	-0.1385134
20	0x3e20d3e9	0.15705837
21	0x3e3bf776	0.18356118
22	0x3dd1a870	0.10237205
23	0x3e1731bd	0.14765067
24	0xbdc9dd39	-0.09856648
25	0xbd964f8e	-0.073393926
26	0x3b4216b3	0.002961558
27	0x3da29fd0	0.07940638
28	0x3e134487	0.1438161
29	0x3e925516	0.2858054
30	0xbd979be2	-0.07402779
31	0x3e6d3501	0.2316475
32	0xbe0fa2b4	-0.1402691
33	0x3c81d20a	0.015847225
34	0x3da5d0f7	0.080964975
35	0x3e1e01b3	0.15430336
36	0xbd80c789	-0.06288058
37	0xbe240fde	-0.16021678
38	0x3cb9b3f0	0.022668809
39	0x3b01297d	0.0019708567
40	0x3ddd1f12	0.10796942
41	0xbe0d7757	-0.13815056
42	0xbd9dd7bc	-0.07707164
43	0xbe1c8efd	-0.1528892
44	0x3cda2c3e	0.026632424
45	0x3dab84d7	0.083749466
46	0xbd7fe3d5	-0.062473137
47	0x3cf12469	0.029436307
48	0xbd4cfc50	-0.05004531
49	0xbd83609c	-0.06414911
50	0x3e80a12d	0.25122967
51	0xbd6f4fd1	-0.05842573
52	0x3decfcc0	0.11571646
53	0x3ccf5e5f	0.025313554
54	0xbba4f732	-0.005034351
55	0x3d96dbaa	0.07366116
56	0x3e346ebf	0.17620371
57	0x3e6248a0	0.22098017
58	0x3d8c684b	0.0685583
59	0x3dd5a233	0.10431328
60	0xbe2ad087	-0.1668111
61	0x3d40d0d9	0.047074173
62	0x3dcd6eae	0.10030876
63	0xbe2a3a8c	-0.16623896
64	0xbdbed73b	-0.09318396
65	0xbda1c687	-0.07899194
66	0xbd905ad1	-0.07048572
67	0xbeb8dba6	-0.36105078
68	0xbe291c39	-0.16514672
69	0xbd8c11b2	-0.068393126
70	0x3e7e5142	0.24835685
71	0xbdcbd2a5	-0.09952287
72	0x3de77db9	0.113032766
73	0xbead57ea	-0.33856136
74	0xbc39710e	-0.011318458
75	0xba2ac139	-0.0006513778
76	0xbd743461	-0.059620265
77	0xbdd24e3d	-0.10268829
78	0xbd84daa9	-0.064870186
79	0xbdc28f8e	-0.09500037
80	0x3e0a510e	0.13507482
81	0x3e50fd52	0.20409134
82	0xbdf6a820	-0.12043786
83	0xbe9a421c	-0.30128562
84	0x3c2cee03	0.010554793
85	0xbd237eba	-0.039915778
86	0xbd77cc08	-0.060497314
87	0x3e33de79	0.17565335
88	0x3e1a78e2	0.15085176
89	0xbd135899	-0.035973165
90	0x3dd288e6	0.102800176
91	0x3c8b0d45	0.0169741
92	0x3cebc35f	0.028779684
93	0xbc855ec9	-0.016280549
94	0x3b3231ca	0.002719032
95	0x3d943fc7	0.07238727
96	0xbc72e8b0	-0.014825985
97	0x3dd03eec	0.101682514
98	0x3d907836	0.070541784
99	0x3e16915b	0.14703886
100	0xbd8ff080	-0.070282936
101	0x3e093dbb	0.13402455
102	0x3d5fb867	0.05461922
103	0x3de8f7d2	0.11375393
104	0xbe257494	-0.16157752
105	0x3dba14f1	0.090860255
106	0x3e3ee925	0.18643625
107	0x3e0b6205	0.1361161
108	0xbe269681	-0.1626835
109	0x3df26ac0	0.11836767
110	0xbd908eef	-0.070585124
111	0xbd87c18e	-0.066287145
112	0x3e6d86f5	0.23196013
113	0x3d5fe758	0.054663986
114	0xbb92fa1d	-0.004485382
115	0x3d24263d	0.04007553
116	0x3d3249f5	0.043527562
117	0xbdfd54e4	-0.12369707
118	0xbcf3bdba	-0.029753555
119	0xbe5bc7d0	-0.21462941
120	0x3d72bcd1	0.0592621
121	0x3e01d4eb	0.12678878
122	0xbde91e35	-0.11382715
123	0x397a6ded	0.00023882808
124	0x3d667109	0.056260142
125	0x3c941e71	0.018080922
126	0xbe3cf183	-0.18451504
127	0x3e41ca4c	0.18924826
128	0xbc4a38d4	-0.01234265
129	0xbd80aefd	-0.06283376
130	0xbdc4253e	-0.09577416
131	0x3d47d25d	0.048784602
132	0x3d5b63a6	0.05356183
133	0x3e65b1a1	0.22431041
134	0x3c3d5bd7	0.011557541
135	0x3e19eb6c	0.15031213
136	0xbe1124a2	-0.1417413
137	0xbe1cab25	-0.15299661
138	0xbd4542d1	-0.048159424
139	0xbd3f9d81	-0.046781067
140	0xbd99d4db	-0.07511302
141	0x3e191eaa	0.14953104
142	0x3dc473ee	0.09592424
143	0x3db04504	0.08606914
144	0xbdcc65a5	-0.09980325
145	0xbcac7f33	-0.021056747
146	0xbcc9de83	-0.024642235
147	0xbe0f0e3c	-0.13970274
148	0x3d4619e5	0.04836454
149	0x3e230c15	0.15922578
150	0x3c497845	0.012296741
151	0xbdba0e4a	-0.09084757
152	0x3d3399aa	0.043847717
153	0xbc558b39	-0.013033682
154	0xbc5616c0	-0.013066947
155	0xbdc76a18	-0.09737033
156	0xbd68318d	-0.05668788
157	0xbe610e70	-0.21978164
158	0x3d3dc752	0.046332665
159	0x3cd7a76c	0.02632495
160	0x3de44f5b	0.11147948
161	0x3c93bdf9	0.018034922
162	0x3e1c1a91	0.1524451
163	0xbd847d91	-0.064692624
164	0xbd893444	-0.06699422
165	0x3dcba1d7	0.09942978
166	0x3e0bc502	0.13649371
167	0x3c11f00f	0.008907332
168	0xbe8b3a1e	-0.27192777
169	0x3d033411	0.032032076
170	0xbcea65c0	-0.028612971
171	0x3cad2df9	0.021140086
172	0x3c58547f	0.013203739
173	0xbe137449	-0.14399828
174	0xbd56b75f	-0.05242097
175	0xbd79c62b	-0.060980003
176	0x3d1465ca	0.036229886
177	0x3e2d412f	0.16919397
178	0xbdd3847b	-0.10328003
179	0x3e478645	0.19484814
180	0x3d838e1e	0.06423591
181	0x39993133	0.0002921909
182	0x3dd0b94b	0.10191592
183	0xbe0ca05e	-0.1373305
184	0xbd7ddf44	-0.0619805
185	0xbe3d1c7f	-0.18467902
186	0x3e355e1a	0.17711678
187	0xb9c741cf	-0.0003800527
188	0xbd1537f4	-0.036430314
189	0x3de17168	0.11007959
190	0x3e460a3c	0.19339842
191	0x3e237686	0.15963182
192	0xbe2e7297	-0.170359
193	0x3d26ace9	0.040692244
194	0xbe081a8b	-0.13291375
195	0x3be77d2f	0.0070644836
196	0x3d9ccfe1	0.07656837
197	0x3d96d515	0.07364861
198	0x3de390cc	0.11111602
199	0x3ccd7644	0.025080808
200	0x3e36f2d0	0.17866063
201	0x3e813e7d	0.25242987
202	0x3e07c060	0.13256979
203	0x3da2964d	0.07938824
204	0xbd79f08a	-0.06102041
205	0x3e318dbd	0.17339225
206	0x3e3977f7	0.18112169
207	0x3c976756	0.018481892
208	0xbce0dc52	-0.027448807
209	0xbe6f2909	-0.23355497
210	0x3ce4e93a	0.027943242
211	0xbd284c36	-0.041088305
212	0xbde07f86	-0.10961823
213	0xbda50b6c	-0.08058819
214	0xbe641468	-0.2227341
215	0x3e4adfc2	0.1981192
216	0xbe0d37bc	-0.13790792
217	0x3b83eff8	0.0040264092
218	0x3e3b36d7	0.18282638
219	0xbd1f7788	-0.038932353
220	0x3a219316	0.000616358
221	0x3c596eea	0.013271073
222	0xbdcf441e	-0.10120414
223	0x3c1d7b43	0.009611907
224	0x3e425b30	0.18980098
225	0x3e180601	0.1484604
226	0x3dd938ac	0.106065124
227	0x3dd57cde	0.10424207
228	0x3e001219	0.12506904
229	0xbde45960	-0.111498594
230	0xbdd52a96	-0.10408513
231	0x3e8a8105	0.2705156
232	0xbdea5682	-0.11442281
233	0xbe197413	-0.14985685
234	0x3e028d1a	0.12749138
235	0xbbbaa320	-0.0056957155
236	0x3c990677	0.01867984
237	0xbe2b2212	-0.16712216
238	0x3ca2ce29	0.019873695
239	0xbbfedadd	-0.0077775554
240	0x3dd226b2	0.10261287
241	0xbd174ca3	-0.03693832
242	0x3cdab0b6	0.02669559
243	0x3d901178	0.07034582
244	0xbc90cfbf	-0.017677186
245	0x3e50074c	0.20315284
246	0xbd3d295b	-0.046182018
247	0xbd6d3d0a	-0.05791954
248	0x3dcf59f0	0.10124576
249	0x3e2eff85	0.1708966
250	0x3ddae812	0.10688795
251	0xbe05530c	-0.13019961
252	0x3e1bc81b	0.15213053
253	0x3d88cf16	0.066801235
254	0xbe19803e	-0.14990327
255	0x3e16a8d6	0.14712843

action_model._discrete_distribution.branches.0.bias f4 [2]
0	0x3b58f87f	0.00331071
1	0xbb58c4b1	-0.0033076222

action_model._discrete_distribution.branches.1.weight f4 [3, 256]
0	0xbcccfdae	-0.025023308
1	0xbd6277cd	-0.055290032
2	0xbd440ee0	-0.04786575
3	0xbdad66c0	-0.08466864
4	0x3cc5b05b	0.024131944
5	0xbd3e7883	-0.046501648
6	0x3e8b62a7	0.27223703
7	0xbe2c2d80	-0.16814232
8	0xbdd65b6d	-0.10466657
9	0xbd68a0b7	-0.056793895
10	0x3d831d9e	0.064021334
11	0x3d8abdbc	0.0677447
12	0xbbe75680	-0.007059872
13	0xbd9acbee	-0.07558428
14	0xbe0a8205	-0.13526161
15	0x3c4e2ef6	0.012584439
16	0xbdd66da3	-0.1047013
17	0xbe7a8bc7	-0.24467383
18	0xbe161dc2	-0.14659789
19	0xbe18fcda	-0.14940205
20	0xbd2e7c9e	-0.042599313
21	0x3cca5da1	0.024702849
22	0x3e262288	0.1622411
23	0xbd654083	-0.055969726
24	0x3e2d3dbb	0.1691808
25	0x3c8a6a90	0.016896516
26	0xbe3826cb	-0.17983548
27	0x3aad06f5	0.0013200926
28	0xbd8c229a	-0.06842537
29	0xbc48cbdb	-0.012255634
30	0x3ca4b10d	0.020103956
31	0x3c7921a7	0.015205777
32	0xbd13e063	-0.036102664
33	0xbe56f737	-0.20992742
34	0xbe6a5fdd	-0.22888131
35	0xbe189634	-0.14901048
36	0xbd19a1c8	-0.037507802
37	0x3d09f9d2	0.033685513
38	0xbe80370d	-0.25042
39	0xbd3737ef	-0.044731077
40	0x3ce8d190	0.02842024
41	0xbded762e	-0.115948066
42	0x3bf457e0	0.0074567646
43	0x3e03f310	0.1288569
44	0xbce52cd4	-0.027975477
45	0xbd972953	-0.07380929
46	0x3d43f9d7	0.047845688
47	0xbd9fc278	-0.07800764
48	0xbd3821ba	-0.04495404
49	0xbde6b9fb	-0.11265942
50	0x3d889e2e	0.066707954
51	0x3e46b144	0.19403559
52	0x3c090094	0.008361954
53	0x3e09e75f	0.13467167
54	0x3d716147	0.05893066
55	0xbe96662c	-0.29374826
56	0x3c6f44d6	0.014603814
57	0xbd888e84	-0.06667808
58	0xbd6fdcbf	-0.05856013
59	0x3d367ff9	0.044555638
60	0x3ba599db	0.0050537414
61	0xbdceb9f7	-0.10094064
62	0x3db898a4	0.09013489
63	0x3d97b382	0.07407285
64	0xbdcb24de	-0.09919141
65	0x3c1a213f	0.009407341
66	0xbd0d5380	-0.03450346
67	0x3e31f01f	0.17376755
68	0xbd5d141e	-0.053974263
69	0x3dd04ac3	0.1017051
70	0x3c1a250f	0.0094082495
71	0xbd99f630	-0.0751766
72	0x3d86c560	0.06580615
73	0x3df21749	0.118208475
74	0xbc50117d	-0.012699482
75	0x3e386efa	0.18011084
76	0x3d7fbd3c	0.062436327
77	0xbd1fbdb8	-0.03899929
78	0x3e050fe4	0.12994343
79	0xbd106593	-0.03525312
80	0xbe169bcc	-0.1470787
81	0xbde63037	-0.11239665
82	0x3da7eb32	0.08199157
83	0x3dabb7e0	0.08384681
84	0x3dff7b60	0.12474704
85	0x3da523ad	0.08063445
86	0xbbed151a	-0.0072351815
87	0x3cf770de	0.030205186
88	0x3c5b4121	0.013382227
89	0xbd9e511b	-0.077303134
90	0x3c1b9297	0.009495399
91	0x3d583e64	0.052793875
92	0x3d9774bf	0.073953144
93	0x3c100d52	0.008792238
94	0xbdf915d5	-0.12162367
95	0x3d2052b9	0.03914139
96	0xbd97326c	-0.07382664
97	0x3d80e384	0.06293395
98	0x3d1e90e4	0.038712397
99	0xbe3280f5	-0.17432006
100	0x3e25e1f9	0.16199483
101	0x3dada601	0.08478928
102	0xbdb33ca0	-0.08751798
103	0xbd1dfbe1	-0.03857029
104	0xbdb6f939	-0.08934254
105	0x3d324301	0.04352093
106	0x3c8acb35	0.0169426
107	0xbd858ef9	-0.065214105
108	0x3aadc1ee	0.0013256648
109	0x3ddc0e11	0.107448705
110	0x3d837cc5	0.06420282
111	0x3c23a7e4	0.009988759
112	0xbd428286	-0.047487758
113	0xbe0de8e0	-0.13858366
114	0xbcdeb776	-0.02718709
115	0xbd995b5f	-0.07488131
116	0xbc92effd	-0.017936701
117	0xbd928e85	-0.0715609
118	0x3e16a14e	0.1470997
119	0x3d6f6423	0.058445107
120	0x3dad895f	0.08473467
121	0x3dd3226c	0.103093
122	0xbe165412	-0.14680508
123	0xbc9703cf	-0.018434433
124	0xbc523dda	-0.012832129
125	0x3d415407	0.047199275
126	0xbdfb59ee	-0.12273012
127	0xbac472d5	-0.0014987836
128	0xbc8f729f	-0.01751071
129	0xbe3fcbdc	-0.1873011
130	0x3ced0897	0.02893476
131	0x3d43790b	0.047722857
132	0x3e5404b5	0.2070492
133	0xbd2037da	-0.039115764
134	0xbde96cab	-0.1139768
135	0xbd6336c5	-0.055472154
136	0xbe0197fe	-0.12655637
137	0x3e581f23	0.21105628
138	0xbd26b286	-0.040697597
139	0xbe6c1b6d	-0.23057337
140	0x3dbe8c01	0.093040474
141	0xbdc7b822	-0.097519174
142	0x3c9c7b45	0.019101748
143	0x3d9e642d	0.07733951
144	0xbd22d137	-0.039750304
145	0xbdf8c92f	-0.12147748
146	0xbd52b0e1	-0.051438216
147	0x3d9d594f	0.0768305
148	0x3c8cd8cd	0.017193222
149	0x3c938f4f	0.01801267
150	0x3a0384fa	0.00050170685
151	0xbd5cc901	-0.05390263
152	0xbd5fb32b	-0.054614227
153	0xbcce8f81	-0.025214912
154	0xbe050e78	-0.129938
155	0xbdde3e9e	-0.10851787
156	0x3cfa6e3e	0.030570146
157	0x3dfa4aaf	0.12221276
158	0xbc3d0822	-0.011537584
159	0xbdfebdac	-0.12438521
160	0x3e193783	0.14962582
161	0x3d8428e3	0.06453111
162	0xbe191482	-0.1494923
163	0x3afe9d10	0.001942547
164	0x3cc5dce9	0.02415319
165	0x3d944675	0.07240001
166	0xbd91a91e	-0.07112335
167	0xbc2ac274	-0.010422338
168	0x3d74eba7	0.059795048
169	0x3cdec0c2	0.027191523
170	0xbdd1992a	-0.10234292
171	0x3d679b87	0.056544807
172	0x3e2cb25a	0.1686491
173	0xbd37e1f5	-0.044893224
174	0x3bcd8c3d	0.006272821
175	0xbd82892f	-0.06373822
176	0xbe5fb729	-0.21847214
177	0xbdc7f19c	-0.0976288
178	0x3e2e5075	0.1702288
179	0xbd39dbfb	-0.045375805
180	0x3dd73ca2	0.10509612
181	0x3dab9cf2	0.08379544
182	0x3db21858	0.086960495
183	0xbda40dc3	-0.08010437
184	0xbd41a2a4	-0.047274247
185	0xbb68535d	-0.003545008
186	0xbe56ae38	-0.20964897
187	0x3dd65951	0.104662545
188	0x3d77db4a	0.060511865
189	0xbc44101a	-0.01196673
190	0xbd087bae	-0.033321075
191	0xbdb26fa2	-0.087126985
192	0x3d7b5442	0.06135965
193	0x3cb0cc71	0.02158186
194	0x3cc7c97b	0.024388066
195	0x3dac05ed	0.08399568
196	0x3e12b782	0.14327815
197	0xbbbd6675	-0.005780036
198	0x3de50401	0.11182404
199	0x3e51689b	0.2045006
200	0x3d39d2e3	0.045367133
201	0xbce1cc55	-0.027563253
202	0x3c9c22fd	0.019059652
203	0xbba6ad01	-0.0050865416
204	0xbd8ba5f2	-0.06818761
205	0x3d2e05a5	0.04248585
206	0x3b1d473c	0.0023998758
207	0xbd991a8c	-0.074757665
208	0xbdec9af2	-0.11552991
209	0x3d0fd62c	0.03511636
210	0x3e4474ce	0.19185182
211	0x3d17361f	0.03691685
212	0x3e7af7e1	0.24508621
213	0x3da5e18a	0.08099659
214	0x3d2c0503	0.041996967
215	0x3d4e9677	0.050436463
216	0x3d14c239	0.036318038
217	0x3d42243f	0.04739785
218	0xbd514a05	-0.05109598
219	0xbdf120f5	-0.11773864
220	0xbdc26f94	-0.09493938
221	0x3d7e9f29	0.062163506
222	0xbd7eb053	-0.062179875
223	0xbe172dac	-0.14763516
224	0xbd15d502	-0.036580093
225	0x3c5ac4b7	0.013352565
226	0xbb23d7de	-0.0025000493
227	0x3d0205e6	0.031743906
228	0xbde82877	-0.11335843
229	0x3e6b89c9	0.2300178
230	0xbdc90eed	-0.098173
231	0x3d2238d5	0.03960498
232	0x3d62c81d	0.055366624
233	0xbcb4336f	-0.021997182
234	0xbc9001d0	-0.01757899
235	0xbd9d8283	-0.07690909
236	0x3dfefd20	0.124506235
237	0xbbc1c2ba	-0.005913106
238	0xbe37c335	-0.1794556
239	0x3ca28265	0.019837568
240	0xbd9c898f	-0.07643425
241	0x3df168ff	0.117876045
242	0x3dcf6c72	0.10128106
243	0x3ca1c8e9	0.019749122
244	0x3d4239da	0.047418453
245	0x3d539e85	0.051664848
246	0xbd9e266b	-0.077221714
247	0xbd5b570a	-0.053549804
248	0x3b960e34	0.00457933
249	0x3b717503	0.0036843426
250	0x3d462976	0.048379384
251	0xbd187f9e	-0.03723108
252	0x3d70b675	0.058767755
253	0x3dc3db83	0.09563353
254	0x3d5054d2	0.05086214
255	0xbceb6a85	-0.028737316

action_model._discrete_distribution.branches.1.bias f4 [3]
0	0x3d6f8e83	0.05848552
1	0xbd199c11	-0.037502352
2	0xbcd53e68	-0.026030734
